Checkpoints/AEFPNC.pth (torch_old, 900630 bytes, 68 tensors)

weight f4 [3]
0	0x3e7de985	0.24796112
1	0x3dec91fd	0.115512826
2	0x3e395083	0.18097119

bias f4 [3]
0	0x3c48ce83	0.0122562675
1	0xbd2324e1	-0.039830092
2	0xbd882672	-0.06647958

running_mean f4 [3]
0	0x3f0ea6d1	0.5572329
1	0x3f080d9b	0.5314576
2	0x3ee7120f	0.45130965

running_var f4 [3]
0	0x3da99709	0.08280761
1	0x3d941ebb	0.07232424
2	0x3d9381e4	0.07202509

weight f4 [16, 3, 3, 3]
0	0xbcbb16bc	-0.022837989
1	0x3be85ebf	0.0070913727
2	0x3cf2079b	0.029544642
3	0xbe058909	-0.13040556
4	0x3ba12401	0.004917622
5	0x3dc96d3a	0.098352864
6	0x3c02809c	0.007965233
7	0xbd85f637	-0.065411024
8	0xbceb9f5f	-0.028762517
9	0x3e080700	0.1328392
10	0xbded31d7	-0.11581772
11	0xbcc5c473	-0.024141526
12	0x3e32ce67	0.17461549
13	0x3d7cfb45	0.061763067
14	0x3e4dcf9d	0.2009873
15	0x3e4b1ea9	0.19835915
16	0x3dece6c3	0.11567452
17	0x3e0477cb	0.12936322
18	0xbadf60de	-0.0017042418
19	0x3dba21d6	0.09088485
20	0xbe0d56f5	-0.13802703
21	0xbd6085e7	-0.0548152
22	0xbe67a6eb	-0.22622268
23	0xbd8b5d3f	-0.06804895
24	0x3d8f4930	0.06996381
25	0xbdd95128	-0.106111825
26	0xbd0395de	-0.032125346
27	0xbd8bee37	-0.06832545
28	0xbe016061	-0.12634422
29	0x3da05336	0.07828371
30	0xbda3e0b7	-0.08001845
31	0xbe7db8d5	-0.24777539
32	0xbce67494	-0.02813176
33	0x3da9c2f4	0.082891375
34	0x3d0f461b	0.034978967
35	0x3d844338	0.064581335
36	0x3d958cbc	0.073022336
37	0xbd95dbbc	-0.07317302
38	0xbc565cef	-0.0130836805
39	0x3e941a54	0.28926337
40	0xbecd3da7	-0.400861
41	0xbe8c7c68	-0.27438664
42	0xbe74088b	-0.23831384
43	0x3e04e276	0.12977013
44	0x3c93e024	0.018051215
45	0x3d60e338	0.054904193
46	0x3dbf2a33	0.09334221
47	0xbd6e537d	-0.05818509
48	0xbd0ac6f1	-0.03388113
49	0x3e6f8870	0.2339189
50	0xbe42f145	-0.1903735
51	0x3ce07ff0	0.027404755
52	0xbd80ce83	-0.06289389
53	0x3cceb066	0.025230598
54	0xbe270a0c	-0.16312426
55	0xbdb5c55b	-0.08875533
56	0x3d3c5d0b	0.04598717
57	0x3da3d1fc	0.07999036
58	0x3d9d1f63	0.07672002
59	0x3d2969ca	0.041360654
60	0xbd4d5196	-0.050126635
61	0x3e88e866	0.26739806
62	0x3cd20c81	0.025640728
63	0x3d988970	0.07448089
64	0x3e2bf759	0.16793574
65	0x3c70ea21	0.014704258
66	0xbd08e021	-0.03341687
67	0x3d9194c5	0.07108454
68	0x3cb1c613	0.021700894
69	0x3d8ed2a2	0.06973769
70	0xbe1cddee	-0.15319034
71	0x3e1e608d	0.15466519
72	0x3da28d62	0.07937123
73	0xbe560fd2	-0.20904472
74	0x3dc3706c	0.09542927
75	0xbe43b641	-0.19112493
76	0xbe4c5a71	-0.19956376
77	0xbe1d1b19	-0.15342368
78	0x3ca557eb	0.020183524
79	0xbe1d31e1	-0.15351059
80	0xbe197e77	-0.14989649
81	0x3cfa9c84	0.03059221
82	0x3b6b872e	0.0035938728
83	0xbda8f1d0	-0.08249247
84	0xbca42079	-0.020035015
85	0x3c9d0931	0.019169422
86	0x3df2575f	0.11833071
87	0xbd8dd398	-0.06925124
88	0x3d34684c	0.044044778
89	0xbdebac77	-0.115075044
90	0xbe40227f	-0.18763159
91	0x3d8e78cf	0.06956636
92	0xbe03d726	-0.12875041
93	0xbd83f2de	-0.064428076
94	0xbe1686e4	-0.14699894
95	0xbd062ad6	-0.032755695
96	0xbdf6fb1d	-0.12059615
97	0xbc00dacb	-0.007864664
98	0x3bc96c87	0.0061469707
99	0xbda537dc	-0.08067295
100	0xbcbc11c5	-0.022957692
101	0xbe1054db	-0.1409487
102	0xbe1dd201	-0.15412141
103	0xbd9cd0ac	-0.076569885
104	0xb8893772	-6.5429966e-05
105	0xbe24f698	-0.16109693
106	0xbe240abd	-0.16019721
107	0x3a42454d	0.00074108393
108	0xbd0f1216	-0.034929357
109	0x3e0f12ac	0.13971967
110	0xbe3141ec	-0.17310303
111	0x3d283ebe	0.04107546
112	0xbe08385d	-0.13302751
113	0x3d7a876b	0.0611643
114	0xbe1cc12e	-0.15308067
115	0xbda9523c	-0.08267638
116	0xbc898271	-0.016785832
117	0x3d0eb125	0.034836907
118	0xbeb2106a	-0.34778148
119	0x3deb46be	0.114881024
120	0xbe4e5c33	-0.20152359
121	0xbe0a44ea	-0.13502851
122	0xbcc8284e	-0.024433281
123	0x3e1fdb4f	0.15611003
124	0x3e15262f	0.14565347
125	0x3e06d9f6	0.13169083
126	0xbe33f1c8	-0.17572701
127	0x3d9326e8	0.07185155
128	0x3d92c789	0.071669646
129	0x3b95d065	0.0045719617
130	0x3e5ee9f4	0.21768934
131	0x3cf07711	0.02935365
132	0xbd012be9	-0.031536017
133	0xbe0943c2	-0.13404754
134	0x3dd9fe4c	0.106442064
135	0xbdb37e88	-0.08764368
136	0x3e3c073a	0.18362132
137	0xbc8fdace	-0.017560389
138	0x3de93748	0.11387497
139	0x3e1f50f2	0.15558222
140	0x3e167b89	0.14695562
141	0xbc9b5505	-0.018961439
142	0x3d91e064	0.07122877
143	0x3c99f0a7	0.01879151
144	0xbd42a115	-0.0475169
145	0x3e1f0557	0.1552938
146	0x3bb03749	0.0053776843
147	0xbddd7d03	-0.1081486
148	0x3e40b1ba	0.18817797
149	0xbd3c573e	-0.045981638
150	0xbd440702	-0.047858246
151	0xbe2bbff7	-0.16772448
152	0xbd30bf6c	-0.043151304
153	0xbd280499	-0.04102001
154	0x3de36dfd	0.11104963
155	0xbdf1cc26	-0.11806516
156	0x3db04d84	0.08608535
157	0xbdffb0a4	-0.124848634
158	0xbd914da5	-0.07094888
159	0xbd97ccfa	-0.07412143
160	0xbdc689d2	-0.09694256
161	0x3d9da323	0.076971315
162	0xbd63a654	-0.055578545
163	0xbdfeaabf	-0.12434911
164	0x3d872092	0.06598009
165	0x3e51dade	0.20493647
166	0xbd86039f	-0.065436594
167	0x3d52e886	0.051491283
168	0x3c90dc2a	0.017683107
169	0xbd9af2e6	-0.075658605
170	0xbce2fb4f	-0.027707724
171	0xbe895251	-0.26820615
172	0x3e681cc2	0.2266722
173	0x3defe760	0.11714053
174	0xbe20a2bb	-0.15687077
175	0xbe158968	-0.14603198
176	0x3ddc5254	0.1075789
177	0xbdda198c	-0.10649404
178	0x3d6c3a16	0.057672583
179	0x3e1f1bdd	0.15537973
180	0x3e99f7eb	0.3007196
181	0x3d00145e	0.031269424
182	0xbe400574	-0.1875208
183	0xbe55d8b8	-0.20883453
184	0x3e3686ee	0.17824909
185	0xbe29ed2c	-0.1659438
186	0x3d6bc32d	0.05755918
187	0x3d68f76d	0.05687659
188	0xbd4d6860	-0.050148368
189	0xbd5fa0c9	-0.054596696
190	0xbd8aae1c	-0.0677149
191	0x3d39375c	0.04521881
192	0xbba09ca6	-0.0049014864
193	0x3e5e728b	0.21723382
194	0xbc87067f	-0.01648259
195	0xbd7403ba	-0.059573866
196	0xbca75c5c	-0.020429783
197	0xbd83fe0d	-0.06444941
198	0xbc66952b	-0.01407365
199	0xbdb632f4	-0.08896437
200	0x3c9368b0	0.017994255
201	0xbdb547b8	-0.0885157
202	0x3ce4c54a	0.027926106
203	0x3c8aba6e	0.0169346
204	0xbd21d05b	-0.039505344
205	0x3da46b28	0.08028251
206	0x3d0ddbcd	0.034633446
207	0x3df01c2a	0.11724122
208	0xbd40792a	-0.04699055
209	0x3dca1c6c	0.09868702
210	0x3c87b6a8	0.01656659
211	0x3ea48c7e	0.32138437
212	0xbd84f873	-0.064927004
213	0xbc2cb2a2	-0.010540636
214	0x3da7876e	0.08180128
215	0x3e1717e2	0.14755204
216	0xbb338f52	-0.0027398658
217	0x3d406590	0.046971858
218	0x3cf301b0	0.02966389
219	0x3cf46d1d	0.029837186
220	0xbe0c0a51	-0.1367581
221	0xbdc41fc6	-0.09576373
222	0xbe27884a	-0.16360584
223	0x3d7ddf30	0.061980426
224	0xbb32f9c5	-0.0027309519
225	0x3e961894	0.29315627
226	0x3e3952fb	0.18098061
227	0x3c844f0d	0.016150976
228	0xbccd71bc	-0.025078647
229	0x3e099a0f	0.13437675
230	0x3e81e309	0.25368527
231	0xbe4d1110	-0.2002604
232	0x3e3fb5b4	0.18721658
233	0xbdbc5167	-0.09195214
234	0x3d973ed2	0.07385029
235	0xbab722da	-0.0013972179
236	0xbdb76808	-0.08955389
237	0xbddffa48	-0.10936409
238	0xbda534c4	-0.08066705
239	0x3bc2980b	0.005938535
240	0xbd69a032	-0.05703754
241	0x3d90931b	0.07059308
242	0xbc8d86e3	-0.017276233
243	0xbbdb1ab1	-0.0066865315
244	0x3e21d54a	0.1580402
245	0x3d9d0548	0.07667023
246	0xbe443660	-0.19161367
247	0xbdc1c1ab	-0.09460767
248	0x3c7d4df3	0.015460479
249	0x3d84d701	0.06486321
250	0x3d169d55	0.036771137
251	0xbdb9a61a	-0.090648845
252	0xbd0644ad	-0.032780338
253	0x3efdc2ca	0.49562675
254	0xbe3337d9	-0.17501773
255	0x3d2abb64	0.041682616

bias f4 [16]
0	0x3e04da45	0.12973888
1	0xbe5a425b	-0.21314375
2	0xbd18ca25	-0.037302155
3	0xbde4b622	-0.111675516
4	0xbdea276b	-0.114333
5	0x3e14bfda	0.1452631
6	0xbbf2a5c8	-0.0074050166
7	0xbe250835	-0.16116412
8	0x3e219261	0.15778495
9	0x3e2fbe9d	0.17162557
10	0xbe498e2c	-0.1968314
11	0x3ead35b7	0.33830044
12	0xbd7b888b	-0.061409514
13	0x3de4193f	0.11137628
14	0x3e82dc62	0.25558764
15	0xbe79e00c	-0.24401873

weight f4 [16]
0	0x3e997dfc	0.2997893
1	0x3e2b3c1c	0.16722149
2	0x3d7c5220	0.061601758
3	0x3f080c72	0.5314399
4	0x3e3bda98	0.18345106
5	0x3f1284cb	0.57233876
6	0x3ddd5438	0.10807079
7	0x3e1734b9	0.14766206
8	0x3ef204af	0.47269198
9	0x3f21fdd9	0.63277966
10	0x3f0a0fbe	0.5393027
11	0x3f364db3	0.7121231
12	0x3edd9952	0.43281037
13	0x3ec92662	0.39287096
14	0x3ef466e9	0.47734764
15	0x3e2a1a4e	0.16611597

bias f4 [16]
0	0xbe030113	-0.12793379
1	0x3c2c69af	0.010523244
2	0xbc97090b	-0.01843693
3	0x3d3b408c	0.045715854
4	0x3cf5698b	0.029957553
5	0xbd806b3a	-0.06270452
6	0xbccf5b90	-0.025312215
7	0xbb9e3088	-0.0048275627
8	0xbdd156c0	-0.102216244
9	0xbdcd1f60	-0.1001575
10	0x3e238eab	0.15972392
11	0xbca9f858	-0.020748302
12	0x3c119aff	0.008887052
13	0x3c0e03b8	0.008667879
14	0xbbfd2df1	-0.007726424
15	0x3c7c2dee	0.01539181

running_mean f4 [16]
0	0x3db3545f	0.08756327
1	0x3b62ae3a	0.003458871
2	0x3cbaaf6e	0.02278873
3	0x3def9e21	0.117000826
4	0x3c57e92c	0.013178151
5	0x3e215abe	0.15757272
6	0x3b43db52	0.0029885364
7	0x3b46942e	0.0030300724
8	0x3deae0d4	0.11468664
9	0x3e128fc0	0.14312649
10	0x3cc60616	0.024172824
11	0x3eaec8db	0.34137616
12	0x3d894ad6	0.06703727
13	0x3deb9a26	0.11504011
14	0x3e8d9bf3	0.27658042
15	0x3b07fab8	0.0020748805

running_var f4 [16]
0	0x3b64403c	0.0034828326
1	0x39e3fb5b	0.00043484088
2	0x3b38b77f	0.0028185544
3	0x3cccd3ab	0.025003275
4	0x3ad00409	0.0015870343
5	0x3cd4c2bc	0.025971763
6	0x398f9390	0.00027385028
7	0x396011a0	0.0002136887
8	0x3c1e81d5	0.009674509
9	0x3cd29eed	0.025710547
10	0x3b819dbe	0.003955572
11	0x3ca60ab7	0.020268781
12	0x3c1ea623	0.009683165
13	0x3c65eb88	0.014033206
14	0x3c9f39e7	0.01943679
15	0x39668fea	0.00021988121

weight f4 [32, 16, 3, 3]
0	0x3a441974	0.00074805995
1	0x3d46de0d	0.048551608
2	0x3a1f2002	0.0006070138
3	0xbaa80c9a	-0.0012821138
4	0x3dd1e591	0.102488644
5	0x3e0e0448	0.1386882
6	0x3dab46aa	0.083630875
7	0x3d7f2a3f	0.06229615
8	0x3de1b29e	0.11020397
9	0x3c284938	0.010271363
10	0x3c9e1eac	0.019301735
11	0xbd05390e	-0.032525115
12	0x3a1acf13	0.000590549
13	0xbd604915	-0.054757196
14	0xbd403115	-0.04692181
15	0xbc3500a9	-0.011047521
16	0x3c596ab4	0.013270069
17	0xbd2482d4	-0.04016383
18	0x3e06fb79	0.13181867
19	0xbd71034e	-0.058841042
20	0x3d585ac5	0.05282094
21	0x3e1f5e84	0.15563399
22	0x3d0537d2	0.032523938
23	0xbd5786ed	-0.05261891
24	0x3de24e6d	0.11050115
25	0xbcb64591	-0.022249969
26	0x3d1bdb39	0.038050864
27	0x3c7ccab1	0.015429185
28	0xbcfc6d5b	-0.030813864
29	0x3cb04ba9	0.021520453
30	0xbc948e0f	-0.018134145
31	0xbd625c50	-0.055263817
32	0x3a3b6b21	0.00071494473
33	0xbd32bd09	-0.04363731
34	0x3d5eecea	0.054425158
35	0xbcaca204	-0.021073349
36	0xbc846160	-0.016159713
37	0xbd96941f	-0.073524706
38	0xbdddba5a	-0.10826559
39	0xbc885af3	-0.01664493
40	0x3bf1c728	0.0073784776
41	0xbd8443b1	-0.064582236
42	0xbc85b02a	-0.016319353
43	0xbdc13b97	-0.09435194
44	0xbd38a773	-0.045081567
45	0xbe03b632	-0.12862471
46	0xbe076378	-0.13221538
47	0xbd60fbee	-0.05492776
48	0xbd285aba	-0.04110215
49	0xbe0df77c	-0.13863939
50	0xbda16f89	-0.07882602
51	0xbcb65f83	-0.02226234
52	0x3cfcbb83	0.030851131
53	0x3b666c9c	0.003515995
54	0xba02458d	-0.00049694703
55	0xbc2bfbdc	-0.01049706
56	0xba96edee	-0.0011515
57	0xbd3918ce	-0.04518967
58	0xbd82862a	-0.06373246
59	0x3d17fc3e	0.03710579
60	0x3bbefe3a	0.005828646
61	0xbc323571	-0.010876999
62	0xbc5e87a4	-0.013582144
63	0xbb3dbde1	-0.0028952288
64	0xbd6b2b14	-0.05741413
65	0xbdc29a06	-0.09502034
66	0xbd85f342	-0.06540538
67	0xbdb2b2a3	-0.087254785
68	0xbd9a0503	-0.07520487
69	0xbcbf2b05	-0.023335943
70	0xbc110ee4	-0.008853648
71	0x3c703623	0.014661345
72	0xbd7ea566	-0.062169455
73	0xbe1c72f3	-0.15278225
74	0x3be02f2c	0.006841561
75	0xbd98ba1f	-0.07457375
76	0x3d17870e	0.036994033
77	0x3e03f21d	0.12885328
78	0x3d6b2f54	0.057418182
79	0x3d3faf64	0.046798125
80	0xbc32dc5d	-0.0109167965
81	0x3d9aa643	0.07551243
82	0xbd0f2d91	-0.034955565
83	0xbcdd3c1c	-0.027006201
84	0xbb8325ed	-0.004002324
85	0xbced1a2f	-0.02894315
86	0x3d6b159d	0.05739366
87	0xbba372bc	-0.0049880426
88	0xbd885963	-0.06657674
89	0xbd16a097	-0.036774244
90	0x3cc562c7	0.024094952
91	0xbc709eba	-0.014686281
92	0x3d104ac4	0.035227552
93	0x3d294bf8	0.041332215
94	0x3d9be4a6	0.076119706
95	0x3c847a45	0.016171584
96	0x3dd7eab7	0.10542815
97	0x3dcbdfd4	0.09954801
98	0xbc928651	-0.017886313
99	0xbd3ef169	-0.046616945
100	0xbde558dc	-0.11198589
101	0x3d2d4c36	0.04230901
102	0xbe3a8e1c	-0.18218273
103	0xbe1f8829	-0.15579285
104	0x3cb3cdaa	0.021948654
105	0xbdff71be	-0.124728665
106	0xbd9335ff	-0.07188033
107	0x3dadcc9a	0.0848629
108	0xbd88066b	-0.06641849
109	0xbcfee9fb	-0.03111743
110	0x3ca37183	0.019951588
111	0x3d345116	0.044022642
112	0xbd13da22	-0.0360967
113	0x3cb78ba0	0.022405446
114	0x3c87d5e3	0.016581481
115	0x3d5ed450	0.054401696
116	0x3c09c743	0.008409324
117	0x3d0f881a	0.035041906
118	0xbcd708fc	-0.026249401
119	0x3d41c692	0.047308512
120	0x3d21967d	0.039450157
121	0x3c895dc2	0.01676834
122	0xbc498eec	-0.012302142
123	0xbc3a3b41	-0.011366666
124	0xbdcb2616	-0.09919374
125	0x3d8708bd	0.065934636
126	0xbe0bf325	-0.13666971
127	0x3c96ee37	0.018424137
128	0xbd1a71f5	-0.037706334
129	0xbcb9eff1	-0.02269742
130	0x3be262f5	0.0069087693
131	0x3dbd0041	0.09228564
132	0xbc050856	-0.008119663
133	0xbd4c6c7e	-0.049908154
134	0xbc22c8cb	-0.009935568
135	0x3cff16a9	0.031138735
136	0x3be24ee5	0.0069063776
137	0xbd79e21a	-0.061006643
138	0x3e00830e	0.12549993
139	0xbd28d269	-0.041216288
140	0x3d5b2910	0.053505957
141	0x3d84a5af	0.06476914
142	0x3df008bf	0.11720418
143	0x3e07fb50	0.13279462
144	0xb893350f	-7.019389e-05
145	0x3d7224cb	0.05911712
146	0xbd270d81	-0.040784363
147	0xbdcf6d7c	-0.10128304
148	0xbca3071a	-0.019900847
149	0x3ca98c44	0.020696767
150	0x3bf3e224	0.0074427295
151	0x3d8a5aca	0.06755598
152	0xbd0cdda2	-0.034391053
153	0x3d0ed3ce	0.03486996
154	0x3d739cfd	0.059475888
155	0x3c895009	0.016761797
156	0x3b26e84d	0.0025468052
157	0x3d7d0598	0.061772913
158	0x3d136e27	0.03599372
159	0x3c1a805e	0.009430019
160	0xbb341582	-0.002747864
161	0x3c62c784	0.013841514
162	0xbd5f0fdd	-0.054458488
163	0x3d97b079	0.07406706
164	0x3dc3bee7	0.09557896
165	0xbdc67b6c	-0.096915096
166	0xbd9d5bfd	-0.07683561
167	0xbcfaf195	-0.030632773
168	0xbc0bd3e3	-0.008534404
169	0xbc9e70d7	-0.019340916
170	0xbdea0de5	-0.114284314
171	0x3c3d27d1	0.0115451375
172	0xbc3d79d0	-0.011564687
173	0x3d1548d4	0.036446407
174	0xbd897f79	-0.067137666
175	0xbd9f1df7	-0.07769387
176	0xbd28bf72	-0.0411982
177	0xbc04e99d	-0.008112338
178	0xbd810c5b	-0.06301185
179	0x3c49818c	0.012298953
180	0x3c1f706d	0.009731394
181	0xbd2d790b	-0.042351764
182	0xbdf9ac7d	-0.12191103
183	0x3a73dcdc	0.0009302625
184	0x3d9738ba	0.073838666
185	0x3d435c2d	0.047695328
186	0xbaa9d7ac	-0.0012957952
187	0x3d8a4fca	0.067535
188	0xbc5aba56	-0.01335009
189	0xbd2c8c7c	-0.042126164
190	0x3d956c2e	0.07296024
191	0x3cd09500	0.025461674
192	0x3c2fdc91	0.0107337395
193	0xbd0c9b91	-0.034328047
194	0x3d8e98b2	0.06962718
195	0xbbb5f270	-0.0055525824
196	0x3c476db1	0.012172149
197	0x3d007ccc	0.031369016
198	0x3c077cf0	0.0082695335
199	0x3d000fe9	0.031265173
200	0xbcd850ec	-0.026405774
201	0x3d488b3b	0.048960906
202	0x3d45db32	0.048304744
203	0x3d2af7f4	0.041740373
204	0x3b94099e	0.004517748
205	0x3cf8f05a	0.030388046
206	0x3ba2d7fa	0.004969594
207	0x3cd6a5c9	0.0262021
208	0xbe051491	-0.12996127
209	0xbd229641	-0.039694075
210	0xbc2939fd	-0.010328767
211	0xbe086e4b	-0.13323323
212	0xbdbcc75f	-0.092177145
213	0xbc14e33b	-0.009087379
214	0xbc1da0b9	-0.009620839
215	0xbda6d6a2	-0.08146407
216	0xbbc621da	-0.006046516
217	0x3dc3e669	0.095654316
218	0x3a8cbc9a	0.001073736
219	0xbce35ddd	-0.027754718
220	0xbbe02f05	-0.0068415427
221	0xbd6236a4	-0.05522789
222	0xbd63a785	-0.05557968
223	0x3cb9fa1c	0.02270227
224	0xbc9a0928	-0.018803194
225	0xbd046a07	-0.032327678
226	0xbd491438	-0.049091548
227	0xbcff23e9	-0.031145053
228	0x3d8bf36d	0.06833539
229	0x3d2034fc	0.03911303
230	0x3c4789f1	0.012178884
231	0x3d5be884	0.05368854
232	0x3db3610e	0.08758746
233	0x391c27d7	0.00014892161
234	0xba6df2c6	-0.00090770086
235	0x3c61358d	0.013745678
236	0xba84e0d7	-0.0010137808
237	0x3c20df7c	0.009818908
238	0x3a811d2d	0.0009850614
239	0x3c19ea8a	0.009394297
240	0xbc97c5ca	-0.01852693
241	0x3dac3c22	0.08409907
242	0x3d5e5dbe	0.05428862
243	0xbde99a7c	-0.11406419
244	0xbdc75e63	-0.097348
245	0x3d97ab97	0.07405775
246	0xbd276a00	-0.040872574
247	0xbda9e072	-0.08294763
248	0x3d0f49fc	0.034982666
249	0x3b620e3b	0.0034493345
250	0xbd1ec8a7	-0.038765576
251	0xbce4eb16	-0.027944129
252	0x3c4abfd1	0.012374834
253	0x3d03728a	0.032091655
254	0x3d5f8d2a	0.054577984
255	0xbd6184e8	-0.05505839

bias f4 [32]
0	0x3e054873	0.13015918
1	0x3d862684	0.06550315
2	0x3d7ac0d8	0.061219066
3	0xbc93650b	-0.017992517
4	0xbbf57dcd	-0.0074918033
5	0x3d1fe21c	0.039033994
6	0x3c9293a5	0.017892668
7	0xbd064ebd	-0.032789934
8	0xbcee2071	-0.029068204
9	0x3d730f5c	0.05934082
10	0x3d4dc177	0.05023333
11	0x3e1c03f0	0.15235877
12	0x3ab3d3b4	0.0013719709
13	0x3d25b744	0.04045798
14	0xbd85bd61	-0.06530262
15	0xbd72601d	-0.059173692
16	0x3c0406d8	0.008058272
17	0x3c0aa65f	0.0084625175
18	0x3dd554fa	0.104165986
19	0xbce5a82d	-0.028034294
20	0xbc9a07a1	-0.018802466
21	0x3c13ecad	0.009028596
22	0xbc4526cd	-0.012033177
23	0x3c7aecc4	0.015315238
24	0xbe0c0357	-0.13673149
25	0xbd7ebd24	-0.062192097
26	0x3d4b0518	0.049565405
27	0x3dd5af48	0.10433823
28	0x3e024911	0.12723185
29	0xbe287598	-0.16451108
30	0xbde8ce5f	-0.11367487
31	0x3935a573	0.0001732314

weight f4 [32]
0	0x3ec21f1c	0.3791436
1	0x3f3417b2	0.70348656
2	0x3f3218f5	0.6956933
3	0x3f1eec83	0.6207964
4	0x3e7cdb3c	0.24693006
5	0x3e4dd2ae	0.20099899
6	0x3efc54f3	0.4928356
7	0x3eb7e3a2	0.35915858
8	0x3e9588f8	0.2920606
9	0x3ecd6940	0.40119362
10	0x3f14e037	0.58154625
11	0x3f45b53f	0.77229685
12	0x3e7ad404	0.2449494
13	0x3e1f101d	0.1553349
14	0x3f3d709f	0.7399997
15	0x3f0e04cd	0.55476075
16	0x3ea61662	0.32438952
17	0x3f4bb3a9	0.79571015
18	0x3ec3e681	0.38261798
19	0x3e45ef9a	0.19329682
20	0x3ddd71f9	0.10812754
21	0x3eef5585	0.46744934
22	0x3dd27ebe	0.102780804
23	0x3e8a3970	0.26996946
24	0x3f00e8d4	0.5035527
25	0x3f45be80	0.77243805
26	0x3ed70b61	0.4200087
27	0x3ea09b3e	0.3136844
28	0x3ecd0b02	0.4004746
29	0x3f0195ee	0.506194
30	0x3e32b5e4	0.17452198
31	0x3f1da650	0.615819

bias f4 [32]
0	0xbd3ae69c	-0.045630082
1	0xbe12ea3e	-0.14347169
2	0x3d5abf77	0.05340525
3	0xbd64f1f8	-0.055894822
4	0xbd1b59ed	-0.037927557
5	0xbc0660c9	-0.008201786
6	0xbdb22aa6	-0.08699541
7	0x3bcf531c	0.006327046
8	0xbc85deab	-0.016341528
9	0xbdf46702	-0.1193371
10	0x3ceddd86	0.029036295
11	0xbea5f7dc	-0.32415664
12	0x3c61234e	0.013741327
13	0xba3e08d3	-0.000724924
14	0xbd2fed9c	-0.04295121
15	0x3d835746	0.064131305
16	0xbdc03078	-0.09384245
17	0xbd26f257	-0.040758457
18	0xbd6e8f02	-0.05824185
19	0x3c9ecbf4	0.019384362
20	0x3dd10bc1	0.1020732
21	0xbd6ba26b	-0.05752794
22	0x3d5ea965	0.054360766
23	0xbca5c67f	-0.020236252
24	0xbd0ae9d9	-0.03391442
25	0xbcfff8f3	-0.031246638
26	0xbc9c51f0	-0.01908204
27	0xbd9a3f0f	-0.07531559
28	0x3b2d9b8a	0.0026490414
29	0xbc90f181	-0.017693283
30	0x3d3abb89	0.045589004
31	0xbb60cf6f	-0.0034303328

running_mean f4 [32]
0	0x3e301d62	0.17198709
1	0x3dd4a0af	0.103822105
2	0x3e7c9170	0.24664855
3	0x3dc7e088	0.09759623
4	0x3d0e5de3	0.034757506
5	0x3d72e3ca	0.059299268
6	0x3dc74335	0.097296156
7	0x3de18ffb	0.1101379
8	0x3d904a36	0.070454046
9	0x3e20b8d1	0.15695502
10	0x3e0210df	0.12701748
11	0x3de1c612	0.11024107
12	0x3d97e3a3	0.07416465
13	0x3e1ed481	0.15510751
14	0x3e5421b6	0.20715985
15	0x3dc59cc5	0.09649042
16	0x3d80d321	0.0629027
17	0x3e1e8929	0.1548201
18	0x3dcb490d	0.09926043
19	0x3e0f3529	0.13985123
20	0x3d4e3037	0.05033895
21	0x3e2e4128	0.17017043
22	0x3d16f6ff	0.036856648
23	0x3e015476	0.12629876
24	0x3e0f3232	0.13983992
25	0x3e1c42f2	0.15259913
26	0x3e3cae83	0.18425946
27	0x3e179921	0.14804508
28	0x3e45cf58	0.19317377
29	0x3dd1cc05	0.10243992
30	0x3dfb5713	0.122724675
31	0x3dfad919	0.12248439

running_var f4 [32]
0	0x3d123ece	0.035704426
1	0x3cd6ffd7	0.02624504
2	0x3d685bd6	0.056728207
3	0x3cc08f42	0.02350581
4	0x3bcdf7a7	0.006285626
5	0x3c43ed0b	0.011958371
6	0x3cbf94f5	0.023386458
7	0x3cb2f6d9	0.021846222
8	0x3c2db8f1	0.0106031755
9	0x3cfa8b37	0.030583961
10	0x3ce3f241	0.027825477
11	0x3cd18415	0.025575677
12	0x3c8de36f	0.017320363
13	0x3d0af055	0.033920605
14	0x3e6e8026	0.23291072
15	0x3cce7a7d	0.025204891
16	0x3c9f1f48	0.019424096
17	0x3d2bf48b	0.04198126
18	0x3cb63a2c	0.022244535
19	0x3d2ad718	0.041709036
20	0x3c53675c	0.012903061
21	0x3d8a6147	0.067568354
22	0x3c1f9f9e	0.009742646
23	0x3cffe4a0	0.031236947
24	0x3d8b634a	0.06806047
25	0x3d477013	0.048690867
26	0x3d3d1277	0.046160188
27	0x3cc865cd	0.024462605
28	0x3d35cfba	0.044387557
29	0x3d6a46d0	0.05719644
30	0x3d466e20	0.048444867
31	0x3cf12863	0.029438203

weight f4 [64, 32, 3, 3]
0	0xbd6d43de	-0.05792605
1	0xbdca69e2	-0.09883477
2	0xbe32c468	-0.17457736
3	0xbd883949	-0.06651551
4	0xbccd3ba5	-0.025052855
5	0xbe1a75eb	-0.15084045
6	0xbdf7e7ed	-0.12104783
7	0xbd16751a	-0.03673277
8	0xbe23b469	-0.1598679
9	0xbdbc3d7b	-0.09191414
10	0xbdfc3eb0	-0.12316644
11	0xbe3dc671	-0.1853273
12	0xbd613f60	-0.05499208
13	0xbcf46c9c	-0.029836945
14	0xbe1cbb41	-0.15305807
15	0x3dd12af5	0.102132715
16	0x3d035257	0.032060947
17	0x3cc2bcbe	0.02377164
18	0x3c41c866	0.011827564
19	0xbb9163d0	-0.0044369474
20	0x3c000000	0.0078125
21	0x3d1e0d52	0.038586922
22	0x3d504b8f	0.05085331
23	0xbd4a16c6	-0.049338125
24	0xbc2ab184	-0.0104183
25	0x3d353ef2	0.044249482
26	0x3d515f51	0.05111629
27	0x3c69e5d1	0.014275984
28	0x3cf5db75	0.030011872
29	0x3b99c499	0.0046926257
30	0x3d1c1153	0.03810246
31	0x3c598d18	0.013278268
32	0xbd16c6a7	-0.036810543
33	0xbd5a43c5	-0.053287286
34	0xbd2d1bd3	-0.042262863
35	0xbd46e23d	-0.0485556
36	0xbd140333	-0.036135864
37	0xbc84088d	-0.016117359
38	0x3c9c473d	0.019076938
39	0xbd1ad7b3	-0.037803363
40	0x3d35199b	0.044213872
41	0x3cf09bc8	0.029371157
42	0xbd11d0df	-0.035599586
43	0xbd3df046	-0.04637172
44	0xbc9e9a75	-0.01936076
45	0xbe11dc3e	-0.14244172
46	0xbe1f9e8b	-0.15587823
47	0xbd2aeed8	-0.041731685
48	0xbed6e972	-0.4197498
49	0xbe9c9df9	-0.30589274
50	0xbe6d1155	-0.23151143
51	0xbeb12bf6	-0.34603852
52	0xbeb9cf71	-0.36291078
53	0xbecf2c97	-0.40463707
54	0xbd9cb6fe	-0.076520905
55	0x3ca232e6	0.01979966
56	0xbddd08d1	-0.10792697
57	0x3da2d080	0.079499245
58	0x3e0d506d	0.13800211
59	0xbcc59d7f	-0.024122952
60	0xbc114852	-0.00886734
61	0x3e1d79df	0.15378521
62	0x3dc9a2f2	0.098455325
63	0x3dc95fb6	0.098327085
64	0x3b910b31	0.004426383
65	0xbdd975db	-0.10618182
66	0x3db58404	0.088630706
67	0x3df609f4	0.12013617
68	0xbb885b19	-0.0041612503
69	0x3d232a84	0.039835468
70	0x3d271d07	0.040799167
71	0xbc56f241	-0.013119281
72	0xbda7ed70	-0.081995845
73	0x3d3fd9c6	0.046838544
74	0xbd8ec846	-0.06971793
75	0xbd3a8198	-0.045533746
76	0x3d3c1015	0.045913775
77	0x3d75fc38	0.060054988
78	0xbdc100dd	-0.09423993
79	0xbd22ce48	-0.039747506
80	0xb89692c3	-7.179894e-05
81	0x3d686d03	0.056744587
82	0x3e174f6f	0.14776395
83	0xbcc1677d	-0.023608917
84	0x3d8f0643	0.06983616
85	0x3d71dc6a	0.059048094
86	0x3dbb7c43	0.091545604
87	0x3dd70021	0.104980715
88	0x3dbb09b1	0.09132708
89	0x3e2ba0f1	0.16760613
90	0x3b7deb31	0.0038744921
91	0xbd3a3fbd	-0.04547094
92	0x39063fb0	0.00012802961
93	0xbda09c72	-0.078423396
94	0xbded3063	-0.11581495
95	0xbd48d005	-0.049026508
96	0xbdf95d22	-0.12175967
97	0xbe27fa24	-0.16404015
98	0xbe077242	-0.1322718
99	0xbdafcc67	-0.085839085
100	0xbd04daf6	-0.03243538
101	0x3ccc355f	0.024927793
102	0xbd8da833	-0.06916847
103	0xbde0d1c7	-0.10977512
104	0xbda60515	-0.08106438
105	0x3de64d6e	0.11245237
106	0xbd266923	-0.04062761
107	0x3d627e2d	0.05529611
108	0xbcbbe6d0	-0.022937208
109	0xbd25ee50	-0.040510476
110	0xbda2f845	-0.0795751
111	0xbd382a99	-0.0449625
112	0xbbcf9681	-0.00633508
113	0x3cadba91	0.021207126
114	0xbb8c95f0	-0.004290335
115	0xbd938065	-0.07202224
116	0xbb3650b3	-0.0027819097
117	0xbda8980a	-0.08232124
118	0xbd7e5ff8	-0.06210324
119	0xbe2715b4	-0.16316873
120	0xbda6e16d	-0.08148465
121	0x3d0d048f	0.034428176
122	0xbd50ed9f	-0.051007863
123	0x3deebc0a	0.11656959
124	0x3dc87002	0.09786989
125	0x3ddc16dd	0.10746548
126	0x3e68c536	0.2273148
127	0x3e0033b1	0.12519719
128	0x3e1308b8	0.14358795
129	0x3de191be	0.11014126
130	0x3cb619e9	0.022229152
131	0x3e18f424	0.14936882
132	0xbdd869b1	-0.10567034
133	0xbd80ec73	-0.06295099
134	0x3c121648	0.008916445
135	0xbdf1784f	-0.11790525
136	0xbdf4c048	-0.11950737
137	0xbdf2bacf	-0.11852037
138	0xbb764722	-0.003757902
139	0x3d099695	0.03359087
140	0xbd472af2	-0.04862494
141	0xbdb2fe3c	-0.087398976
142	0x3bd38739	0.006455329
143	0xbc98ae4b	-0.018637797
144	0x3dc13eb9	0.094357915
145	0x3e5f618b	0.21814553
146	0x3e7366b3	0.23769645
147	0xbd3f5c67	-0.04671898
148	0x3ceb439f	0.028718768
149	0x3d874f79	0.06606955
150	0xbe60b4cf	-0.21943973
151	0xbd22eddc	-0.03977762
152	0x3d6678d7	0.056267586
153	0x3d9c4a88	0.07631403
154	0x3d841afa	0.06450458
155	0x3da2b489	0.079445906
156	0xbd8cbffd	-0.06872556
157	0xbd5f2fd0	-0.054488957
158	0x3ca9f9e7	0.020749046
159	0xbdcef50a	-0.10105331
160	0xbdb42494	-0.08796039
161	0xbbb11ec3	-0.0054052784
162	0xbeb3fc02	-0.35153204
163	0xbe6e2a9d	-0.23258443
164	0xbe2e26ca	-0.17006984
165	0xbef62416	-0.48074406
166	0xbec3e08e	-0.3825726
167	0xbec3df41	-0.38256267
168	0xbe723507	-0.23653041
169	0xbe81eaee	-0.2537455
170	0xbe256516	-0.16151842
171	0xbc1aa59d	-0.009438899
172	0x3d533004	0.051559463
173	0x3dd18d32	0.10232009
174	0xbd45d49a	-0.048298456
175	0xbd6c3d61	-0.057675723
176	0xbbe6ef42	-0.0070475647
177	0x3cd63fd3	0.02615348
178	0x3be341a6	0.006935316
179	0x3d89092f	0.06691205
180	0x3b9ca606	0.0047805337
181	0xbd50a237	-0.05093595
182	0xbe04ac8c	-0.12956446
183	0x3b807f3e	0.0039214185
184	0xbd0676ef	-0.032828268
185	0xbd6572a9	-0.05601755
186	0xbd3340b2	-0.04376287
187	0xbca181c1	-0.019715192
188	0xbda891cb	-0.08230933
189	0xbd2048d7	-0.039131965
190	0xbd9711d8	-0.0737645
191	0xbd1de1f0	-0.03854555
192	0x3da09da3	0.07842567
193	0x3c8876e5	0.016658256
194	0xbcd80164	-0.02636785
195	0x3dc16365	0.09442786
196	0x3d4ca3c3	0.049960863
197	0x3c82e0e4	0.015976377
198	0xbde0fffd	-0.10986326
199	0xbd4217b8	-0.0473859
200	0xbe4027d7	-0.18765198
201	0xba2977f7	-0.00064647145
202	0x3c31050a	0.010804424
203	0xbd2dcdf6	-0.042432748
204	0xbc008334	-0.007843781
205	0x3d27cf5a	0.04096923
206	0xbd2b07f5	-0.041755635
207	0xbcf2d3e2	-0.02964205
208	0x3c95a859	0.018268751
209	0xbc10fb4d	-0.008848977
210	0xbe0cfcc6	-0.137683
211	0x3b46ec37	0.0030353197
212	0x3c910150	0.017700821
213	0xbd7f51f7	-0.062334027
214	0x3d14404d	0.036194135
215	0xbc10e1b9	-0.008842879
216	0x3dc477fc	0.09593198
217	0x3db4c900	0.088274
218	0x3d004b94	0.031322077
219	0x3d870245	0.0659223
220	0xbc8f1702	-0.017467026
221	0x3ba8a636	0.005146767
222	0x3d577124	0.052598134
223	0x3d61d990	0.055139124
224	0x3cd82e04	0.02638913
225	0xbc9a4102	-0.018829826
226	0xbdf419c5	-0.11918978
227	0xbe18f588	-0.14937413
228	0x3dd5ceef	0.1043986
229	0x3d122542	0.035680063
230	0xbd0885a4	-0.033330575
231	0x3d99b61c	0.07505438
232	0x3dc45fd5	0.09588591
233	0x3c2fb8d9	0.010725223
234	0x3e07146a	0.13191381
235	0x3e437f59	0.19091548
236	0x3de7346d	0.11289296
237	0x3e6d50ad	0.23175307
238	0x3e15cd17	0.14629017
239	0x3e59a047	0.21252547
240	0x3dcdc3f0	0.10047138
241	0x3db305b2	0.08741321
242	0x3dd9fa2c	0.106434196
243	0xbd942064	-0.072327405
244	0x3d0edd5e	0.03487908
245	0x3d873892	0.06602587
246	0x3df8bd43	0.12145474
247	0x3e1914c2	0.14949325
248	0x3de48e5b	0.11159965
249	0x3d0d29f2	0.03446383
250	0x3bba5a63	0.0056870445
251	0x3d705029	0.058670197
252	0x3d14d72a	0.03633801
253	0xbcded7d7	-0.02720253
254	0x3d65f166	0.05613842
255	0x3ce2a7ac	0.027667843

bias f4 [64]
0	0xbdbc15b1	-0.09183825
1	0x3d01d548	0.03169754
2	0x3c823f9e	0.015899476
3	0xbe39f1d5	-0.18158658
4	0xbd4d3533	-0.050099563
5	0xbd2770a1	-0.040878896
6	0xbda775f1	-0.081767924
7	0xbc6f207c	-0.014595147
8	0xbd8bfbc3	-0.06835129
9	0xbd462665	-0.04837646
10	0x3d4e097a	0.050302006
11	0xbea685fb	-0.32524094
12	0xbd7b988f	-0.061424788
13	0x3c926d33	0.017874336
14	0x3c3a71eb	0.011379699
15	0xbbb7d62c	-0.005610248
16	0xbc716a2e	-0.014734788
17	0xbe162430	-0.14662242
18	0xbd662f12	-0.056197233
19	0xbdd61a32	-0.10454215
20	0xbaac4df6	-0.0013145793
21	0x3d6986c2	0.05701328
22	0xbd973dfe	-0.07384871
23	0x3df71154	0.12063852
24	0x3ce29562	0.027659122
25	0x3d9499aa	0.072558716
26	0x3cfea3f0	0.03108403
27	0xbe8c9943	-0.2746068
28	0xbd27d275	-0.04097219
29	0x3d287494	0.041126803
30	0xbb44e6ce	-0.0030044797
31	0x3d5a6b35	0.053324897
32	0xbc4cbd10	-0.012496248
33	0xbe7a9f5e	-0.24474856
34	0xbca0f2ec	-0.019647084
35	0xbda4ef16	-0.080534145
36	0x3cd0587a	0.025432814
37	0x3cda133e	0.026620504
38	0x3d2e9bbd	0.042628992
39	0xbd8ff475	-0.07029048
40	0x3e02d9eb	0.12778442
41	0xbe035280	-0.1282444
42	0xbdab0c5b	-0.08351966
43	0xbcf276f3	-0.029597735
44	0xbe1965ee	-0.1498029
45	0xbdaa898b	-0.083270155
46	0x3b05bc2d	0.002040635
47	0xbdaff146	-0.08590941
48	0x3d98f178	0.074679315
49	0xbd3e90ed	-0.04652493
50	0x3d739129	0.059464607
51	0x3c3299aa	0.010900894
52	0xbe03408a	-0.12817588
53	0xbd77b442	-0.06047464
54	0xbd94435d	-0.07239411
55	0xbcd65dca	-0.026167769
56	0xbbca5973	-0.006175214
57	0xbda64e4a	-0.08120401
58	0xbe182c54	-0.1486066
59	0xbd825c3f	-0.06365251
60	0x3dbe4e21	0.09292246
61	0x3d60405b	0.054748874
62	0x3cc3b126	0.023888182
63	0xbd723543	-0.059132826

weight f4 [64]
0	0x3f0ec541	0.55769736
1	0x3f472c87	0.7780232
2	0x3ea8872b	0.32915625
3	0x3e40e804	0.18838507
4	0x3f455d3f	0.7709541
5	0x3eb7d5b7	0.3590524
6	0x3ef58d0f	0.47959182
7	0x3f57a02a	0.84228766
8	0x3f201ca5	0.6254371
9	0x3f57ba5c	0.84268737
10	0x3e42065e	0.18947741
11	0x3f6ae844	0.9176066
12	0x3e085a75	0.13315757
13	0x3e593dd3	0.2121499
14	0x3e22899d	0.15872808
15	0x3ed5c3da	0.41750985
16	0x3e79edb2	0.2440708
17	0x3ed4ffc6	0.4160139
18	0x3ea117e4	0.3146354
19	0x3e9bf1dd	0.30457965
20	0x3ebf5e97	0.37376854
21	0x3f5e4f3d	0.8683966
22	0x3e0910f6	0.13385376
23	0x3e939977	0.28828022
24	0x3e953ba6	0.2914707
25	0x3f18cfeb	0.5969226
26	0x3e64eb54	0.22355396
27	0x3f36893a	0.7130314
28	0x3f15676b	0.5836093
29	0x3ee9cc49	0.4566367
30	0x3f1f465c	0.62216735
31	0x3e833469	0.25625923
32	0x3e4c6b9c	0.19962925
33	0x3ee173ac	0.44033563
34	0x3f15e715	0.5855573
35	0x3ef730b5	0.48279348
36	0x3f052b06	0.52018774
37	0x3ea09940	0.3136692
38	0x3ea15a4f	0.31514212
39	0x3f1750ae	0.5910748
40	0x3e47e7ff	0.19522093
41	0x3f185eab	0.5951945
42	0x3e7b2299	0.24524917
43	0x3e6efc9c	0.2333855
44	0x3e8cf79b	0.27532658
45	0x3f18c2b4	0.59672093
46	0x3e84094e	0.2578835
47	0x3e7a2c8d	0.24431057
48	0x3ef92616	0.4866187
49	0x3e0014ac	0.12507886
50	0x3e4bbf83	0.19897275
51	0x3eadc659	0.3394039
52	0x3e8c2fcf	0.27380225
53	0x3e5fc729	0.21853317
54	0x3e9b51ad	0.3033575
55	0x3e62242d	0.22084112
56	0x3f10989b	0.5648286
57	0x3edd83d2	0.43264633
58	0x3eb4d245	0.35316673
59	0x3ee93815	0.455506
60	0x3e13500d	0.14386006
61	0x3f012e54	0.50461316
62	0x3ed12d0e	0.40854686
63	0x3f0b1d89	0.5434194

bias f4 [64]
0	0xbdcb843a	-0.099373296
1	0xbd0966e3	-0.033545386
2	0x3b999633	0.0046870946
3	0xbd881f7e	-0.06646632
4	0xbd38cdff	-0.04511833
5	0x3dbc2f67	0.09188729
6	0xbd45fe40	-0.048338175
7	0xbd6d0533	-0.057866286
8	0xbde05363	-0.10953405
9	0xbd654cfd	-0.055981625
10	0xbd95c44f	-0.073128335
11	0x3d851c7d	0.06499574
12	0x3b9704b5	0.0046087154
13	0x3ca4467e	0.020053145
14	0xbdfe4bf9	-0.124168344
15	0xbd897d49	-0.06713349
16	0xbcddbaef	-0.027066676
17	0x3d07bc1a	0.033138372
18	0xbcec84a3	-0.02887184
19	0xbda08f0f	-0.07839786
20	0xbd252a51	-0.04032356
21	0xbdd88540	-0.105722904
22	0xbe706e2b	-0.23479526
23	0xbd282a02	-0.041055687
24	0xbd87ae4a	-0.0662504
25	0x3cb41e3b	0.021987071
26	0xbd8def1f	-0.06930374
27	0x3c58b54a	0.013226816
28	0xbcffdfab	-0.031234583
29	0xbe0f2d3a	-0.13982096
30	0xbde9a524	-0.11408451
31	0x3c42e5a9	0.011895576
32	0xbdfdfc26	-0.12401609
33	0x3cadf55f	0.021235166
34	0xbd458864	-0.048225775
35	0x3d1f6c55	0.038921673
36	0xbd23a1de	-0.03994929
37	0xbddd8ac0	-0.1081748
38	0xbdd48e59	-0.10378713
39	0x3ca58d61	0.020209016
40	0xbd9a09b0	-0.07521379
41	0x3e18cbd2	0.14921501
42	0xbd8fd385	-0.07022766
43	0xbdda4e3f	-0.106594555
44	0xbc3401ae	-0.010986729
45	0x3d8c772a	0.06858666
46	0xbdfceeea	-0.12350257
47	0xbd4c1fd5	-0.049835045
48	0xbdd72d99	-0.10506744
49	0xbd6ac75d	-0.057319034
50	0xbe5e1aaa	-0.21689859
51	0xbdb97731	-0.09055937
52	0xbccfc2d8	-0.025361463
53	0xbe364fc6	-0.17803869
54	0x3cf0e472	0.029405806
55	0xbcb0c2f9	-0.021577345
56	0xbbeaec58	-0.0071692877
57	0xbe29e5a0	-0.16591501
58	0xbc82b0c5	-0.01595343
59	0x3ca483ce	0.02008238
60	0xbd64cecc	-0.05586128
61	0xbd0a92f1	-0.03383154
62	0xbd12ad62	-0.035809882
63	0x3ce6eaf1	0.0281882

running_mean f4 [64]
0	0x3def6cba	0.1169066
1	0x3e7852ce	0.24250337
2	0x3e87fe6a	0.2656129
3	0x3e3fda23	0.18735556
4	0x3e92e192	0.28687721
5	0x3e511fcc	0.20422286
6	0x3e33bfbb	0.17553608
7	0x3e85d90b	0.26142153
8	0x3df622d8	0.12018365
9	0x3eae1749	0.3400214
10	0x3eb682c0	0.3564663
11	0x3e0c9aa4	0.13730866
12	0x3e91f4a4	0.28506958
13	0x3ec84e72	0.3912235
14	0x3e05d8c8	0.13070977
15	0x3ed43a10	0.41450548
16	0x3e84062c	0.2578596
17	0x3e7101bd	0.2353582
18	0x3dd44704	0.10365108
19	0x3e82f6e1	0.2557898
20	0x3e7cde90	0.24694276
21	0x3e8fc054	0.28076422
22	0x3dfa18d4	0.12211767
23	0x3e8b2f3f	0.27184483
24	0x3eb5c3c7	0.3550093
25	0x3e896968	0.2683823
26	0x3e93c459	0.2886074
27	0x3e57246f	0.21009992
28	0x3e50ed41	0.20403005
29	0x3e567e36	0.20946583
30	0x3e11225c	0.14173263
31	0x3e329b62	0.17442086
32	0x3e242c85	0.16032608
33	0x3d4d313c	0.05009578
34	0x3e4d6b68	0.20060503
35	0x3e9344f3	0.28763542
36	0x3eb37419	0.35049513
37	0x3e44c517	0.19215809
38	0x3e8e3dbd	0.27781478
39	0x3e892929	0.26789215
40	0x3de83a28	0.113392174
41	0x3e51f6b7	0.2050427
42	0x3e3616c5	0.17782123
43	0x3e845c9f	0.25851914
44	0x3e40be77	0.18822657
45	0x3e64932f	0.22321771
46	0x3e49ad47	0.19695006
47	0x3e6e2b4e	0.23258707
48	0x3e690ae5	0.22758062
49	0x3e33efe7	0.17571984
50	0x3e979e2e	0.2961287
51	0x3e4a5b92	0.19761494
52	0x3e2666ad	0.16250105
53	0x3e9018a5	0.28143802
54	0x3e9bbe7c	0.30418766
55	0x3eb8b4a5	0.3607532
56	0x3e6ae0ab	0.22937267
57	0x3e02303e	0.12713715
58	0x3e315044	0.17315775
59	0x3e03c7ca	0.12869182
60	0x3e997350	0.2997079
61	0x3ea9eb80	0.33187485
62	0x3ea813ca	0.32827598
63	0x3e51c475	0.20485099

running_var f4 [64]
0	0x3d926a6d	0.07149205
1	0x3de087a7	0.10963374
2	0x3e2659f7	0.16245256
3	0x3df424e1	0.119210966
4	0x3e4b951f	0.19881104
5	0x3dfa963f	0.122356884
6	0x3d869c6b	0.06572803
7	0x3e13fefc	0.14452738
8	0x3d32c131	0.043641273
9	0x3e9f26c4	0.31084263
10	0x3e8fa851	0.28058103
11	0x3e0bb950	0.1364491
12	0x3e919ca5	0.28439823
13	0x3eb42a78	0.3518865
14	0x3d19d230	0.037553966
15	0x3e6f07f4	0.23342878
16	0x3db8ac54	0.09017244
17	0x3de8784c	0.1135107
18	0x3d2acd85	0.041699905
19	0x3e2d7bca	0.16941753
20	0x3e4ea4e0	0.20180082
21	0x3e16a27b	0.14710419
22	0x3d75670d	0.05991273
23	0x3e23149e	0.15925834
24	0x3ea333ce	0.3187546
25	0x3e03a2e8	0.12855113
26	0x3dc92d53	0.09823098
27	0x3e562665	0.20913084
28	0x3db1c23a	0.08679624
29	0x3dd5b7ad	0.10435424
30	0x3d5e6a23	0.05430044
31	0x3dd299ad	0.102832176
32	0x3d8f21cc	0.06988868
33	0x3cbced83	0.023062473
34	0x3ddf66db	0.1090829
35	0x3e55b0ee	0.20868275
36	0x3ebf69f3	0.3738552
37	0x3d919295	0.071080364
38	0x3defa640	0.117016315
39	0x3dce4f57	0.100737266
40	0x3d2001ed	0.039064337
41	0x3e0ae9df	0.13565777
42	0x3d8e0373	0.06934252
43	0x3dee166e	0.11625372
44	0x3df63f66	0.12023811
45	0x3e3ae212	0.18250301
46	0x3d88a90e	0.066728696
47	0x3de671ac	0.1125215
48	0x3e034f1c	0.12823147
49	0x3d885e99	0.06658668
50	0x3e0a2776	0.13491616
51	0x3e23ede0	0.16008711
52	0x3d79517c	0.060868725
53	0x3e242e0e	0.16033193
54	0x3e78f05f	0.24310444
55	0x3e9e1f8f	0.30883452
56	0x3df0aa56	0.11751239
57	0x3d82cf6c	0.06387219
58	0x3db70549	0.08936555
59	0x3d8d3bef	0.06896197
60	0x3e389274	0.18024617
61	0x3eb90af5	0.36141172
62	0x3e7edcbb	0.2488889
63	0x3df4f488	0.11960703

weight f4 [48, 64, 3, 3]
0	0xbdc5aef1	-0.09652508
1	0xbd1b7f02	-0.03796292
2	0xbde8e072	-0.113709345
3	0x3c067194	0.00820579
4	0x3d7f93a8	0.062396675
5	0xbc916c49	-0.01775183
6	0x3d9d7a64	0.0768936
7	0x3da304f3	0.07959928
8	0xbbec4415	-0.0072102644
9	0x3c1cead0	0.009577468
10	0x3d3c5140	0.045975924
11	0x3e5446fa	0.207302
12	0xbddda793	-0.10822978
13	0xbdb2ab96	-0.08724134
14	0x3d9d639b	0.07685014
15	0xbdc3fab2	-0.09569301
16	0xbddd998a	-0.10820301
17	0xbd06b97d	-0.03289174
18	0x3d8b4564	0.068003446
19	0x3cadcfdf	0.021217285
20	0x3ce85e3a	0.028365243
21	0xbc70435e	-0.014664499
22	0x3cc5ed3d	0.024160976
23	0xbdae1fb1	-0.085021384
24	0x3dd34e57	0.103176765
25	0x3c0d1f33	0.0086133955
26	0xbd245761	-0.040122394
27	0x3d4fbfd6	0.05072006
28	0x3d0b8cdb	0.034069877
29	0x3c4b16e9	0.012395599
30	0x3df1e7c1	0.11811782
31	0x3d8e4f2e	0.06948696
32	0x3e14e52c	0.14540547
33	0xbd3db021	-0.046310548
34	0xbcc6cf59	-0.024268793
35	0x3e34e584	0.17665678
36	0x3dd72702	0.10505487
37	0x3d9e1208	0.07718283
38	0x3d46d545	0.048543233
39	0x3df2aa9f	0.1184895
40	0x3d992ab5	0.07478849
41	0x3d3a1b03	0.045435917
42	0x3c82d754	0.015971817
43	0x3b5ac741	0.0033382925
44	0xbdb38159	-0.087649055
45	0xbdb89f55	-0.09014765
46	0xbc7b4636	-0.015336564
47	0xbdcd5f49	-0.1002794
48	0x3ce74beb	0.028234443
49	0x3dcac843	0.09901478
50	0xbd3aefa3	-0.04563869
51	0xbce8137c	-0.028329603
52	0x3caada50	0.020856053
53	0xbd8ad965	-0.06779746
54	0xbd7ed941	-0.06221891
55	0xbce3b955	-0.027798334
56	0x3b0cb854	0.0021472173
57	0x3c82bfba	0.015960563
58	0x3ce60215	0.028077165
59	0x3c1a742f	0.009427114
60	0xbdbba6a6	-0.09162645
61	0x3c92f814	0.017940558
62	0x3cc6b66a	0.024256904
63	0xbd023f1a	-0.03179846
64	0x3d869096	0.06570546
65	0xbb9afb87	-0.0047296914
66	0xbcb9f14a	-0.022698063
67	0x3cb16d3a	0.021658529
68	0xbd2f1cab	-0.04275195
69	0xbc71a798	-0.01474943
70	0xbb0f4a57	-0.0021864378
71	0xbc1d63de	-0.00960633
72	0xbd57de84	-0.05270244
73	0xbcdb08a8	-0.026737526
74	0xbc89c828	-0.016819075
75	0xbd62273f	-0.05521321
76	0xbe4a9c4a	-0.19786182
77	0xbcc91603	-0.024546629
78	0x3e105535	0.14095004
79	0xbbb92a10	-0.005650766
80	0x3d1b78da	0.03795705
81	0x3c9acf56	0.018897694
82	0xbd70732d	-0.05870359
83	0x3c324ff0	0.010883316
84	0xbbf6f21e	-0.007536187
85	0x3d725597	0.059163656
86	0x3b593425	0.0033142653
87	0xbdb85d0c	-0.09002122
88	0xbcb4dee0	-0.022078931
89	0xbddd1f99	-0.107970424
90	0xbc014283	-0.007889393
91	0xbd67164d	-0.056417752
92	0xbe229a75	-0.15879233
93	0x3d266f71	0.040633623
94	0x3d5479c0	0.051873922
95	0x3bf593c9	0.007494424
96	0xbd2af3f2	-0.04173655
97	0x3dc7f033	0.09762611
98	0xbbfe9b99	-0.0077700135
99	0x3e4bda13	0.19907407
100	0xba28096f	-0.0006410097
101	0xbd1ff3c1	-0.03905082
102	0xbc3aa857	-0.011392674
103	0xbcb50494	-0.02209691
104	0xbba43e02	-0.0050122747
105	0xbda19358	-0.07889432
106	0xbdcdf096	-0.10055654
107	0xbcbc1527	-0.022959305
108	0xbda5fc5b	-0.081047736
109	0x3d232996	0.03983458
110	0x3bab068e	0.0052192872
111	0xbc06719b	-0.008205797
112	0x3e04947d	0.12947269
113	0x3d39878f	0.045295294
114	0x3cc76948	0.024342194
115	0x3dbf9b3a	0.09355779
116	0xbc863968	-0.016384795
117	0xbda3a620	-0.0799067
118	0xbdc7d7bf	-0.09757947
119	0xbe3f5f25	-0.18688639
120	0xbce2def2	-0.0276942
121	0xbdda499a	-0.1065857
122	0xbd792fc8	-0.060836583
123	0xbcab2371	-0.020890923
124	0xbd3d3ed1	-0.046202485
125	0xbd0e616e	-0.034760885
126	0xbbb9cd78	-0.0056702457
127	0x3cf3e616	0.0297728
128	0x3d7ffa3c	0.0624945
129	0xbb573655	-0.003283878
130	0xbd069fc0	-0.032867193
131	0xbe2db44c	-0.16963309
132	0x3d1cb2a1	0.03825629
133	0xbdac0f7a	-0.084013894
134	0xbd64247e	-0.055698864
135	0xbd7e13ba	-0.06203053
136	0xbd418367	-0.047244456
137	0x3c0ffdc0	0.008788526
138	0x3b7ce9e1	0.003859155
139	0xbc2060e4	-0.0097887255
140	0x3d769461	0.0602001
141	0x3d0709da	0.03296838
142	0xbca30fe3	-0.019905036
143	0x3c3845f5	0.011247148
144	0x3d91b5f9	0.07114787
145	0xbd492def	-0.04911607
146	0xbe0ccb24	-0.13749367
147	0xbbb61662	-0.0055568675
148	0xbbc657ac	-0.006052932
149	0xbd911610	-0.07084286
150	0x3d27e650	0.040991127
151	0x3dac4c4d	0.08412991
152	0x3d8ca2a8	0.06866962
153	0xbb45c363	-0.0030176274
154	0xbd174b9d	-0.036937345
155	0xbda80a54	-0.08205095
156	0x3c1375fb	0.009000297
157	0x3d3f6c95	0.04673441
158	0xbc8704a4	-0.016481705
159	0x3bbbd066	0.00573163
160	0x3e83023a	0.25587636
161	0x3e14b001	0.14520265
162	0x3e08317f	0.13300131
163	0xbd0b35b5	-0.033986766
164	0x3dd41039	0.10354657
165	0xbcdf4fbf	-0.027259706
166	0x3a7eb3b5	0.00097161095
167	0xbcd5168e	-0.026011731
168	0x3e14f0ff	0.14545058
169	0x3bcd02b4	0.0062564258
170	0xbb31e606	-0.0027145161
171	0xbda85e25	-0.08221082
172	0x3c3df3cc	0.01159377
173	0x3c94c4a6	0.018160176
174	0xbc9cad79	-0.019125687
175	0x3c49a80a	0.01230813
176	0xbd4a2cfd	-0.04935931
177	0x3d65ebf1	0.056133214
178	0xbcd5923f	-0.026070712
179	0x3d1f738e	0.03892856
180	0xbc9c587e	-0.019085165
181	0x3c8cca09	0.017186182
182	0xbe10712a	-0.14105669
183	0x3d170085	0.03686573
184	0xbdb2e5a6	-0.08735208
185	0xbd060217	-0.032716837
186	0xbc7df967	-0.015501357
187	0x3ca84bd0	0.020543963
188	0x3de76589	0.11298663
189	0xbd05d8b4	-0.032677367
190	0x3dadaeb2	0.08480586
191	0xbd097671	-0.03356022
192	0xbcdc8e34	-0.026923276
193	0x3bfcfcfb	0.0077205873
194	0x3c469408	0.012120254
195	0xbd4c91f5	-0.049943883
196	0xbc1fc43d	-0.009751377
197	0x3c363bfc	0.0111227
198	0xbc86260f	-0.01637557
199	0x3d1f15c8	0.03883913
200	0xbcd16ad0	-0.025563627
201	0xbd69e09a	-0.057098962
202	0x3b6bd3e9	0.0035984463
203	0x3e0fc93e	0.14041612
204	0xbda78740	-0.08180094
205	0x3d126455	0.035740215
206	0x3dc47c43	0.095940135
207	0x3c54075b	0.012941207
208	0x3cbf580e	0.023357417
209	0x3dca5bbd	0.09880779
210	0xbd1a358b	-0.03764872
211	0x3d3e5806	0.046470664
212	0xbd24a3f4	-0.04019542
213	0x3d712a36	0.058878146
214	0xbdcd6eeb	-0.100309215
215	0xbd8b7735	-0.06809846
216	0x3d0fc961	0.03510416
217	0xbc87096f	-0.01648399
218	0xbd130037	-0.035888877
219	0x3cede454	0.02903954
220	0x3cd6aec0	0.026206374
221	0x3d3e01b2	0.046388336
222	0x3d781bf9	0.06057355
223	0xbbd45fea	-0.0064811604
224	0xbdcd69e1	-0.100299604
225	0x3d735561	0.059407596
226	0x3d7304a9	0.059330616
227	0x3c44f80b	0.012022029
228	0xbd9a3dea	-0.075313404
229	0xbe0d298c	-0.1378538
230	0xbc02104f	-0.007938459
231	0xbdd21672	-0.10258187
232	0xbd4cc5b9	-0.04999325
233	0x3c467164	0.012111995
234	0xbd0a9b7e	-0.033839695
235	0xbdc0c09f	-0.094117396
236	0x3c54eb33	0.012995529
237	0x3c111b72	0.008856641
238	0x3c4a8164	0.012359951
239	0x3ceafd9f	0.02868539
240	0x3cb36dcd	0.021902943
241	0xbc32bad7	-0.010908804
242	0xbd7a99e4	-0.061181918
243	0xbcc50462	-0.024049941
244	0xbd60808b	-0.054810088
245	0xbdc8759e	-0.09788059
246	0xbe087e64	-0.13329464
247	0xbdc866c7	-0.09785228
248	0xbdc68567	-0.09693413
249	0xbc7799a9	-0.015112319
250	0x3c9e327e	0.019311186
251	0x3cb8c1e0	0.022553384
252	0xbda285c7	-0.07935672
253	0xba48791a	-0.000764744
254	0xbd13b95c	-0.036065444
255	0xbd0e7eeb	-0.034789007

bias f4 [48]
0	0x3d39745f	0.045276996
1	0x3ce21046	0.02759565
2	0xbc8486ec	-0.016177617
3	0xbd9a4fb2	-0.07534732
4	0x3e118cd3	0.14213876
5	0xbb86acb0	-0.0041099414
6	0x3e8c2db7	0.27378628
7	0x3d68bd31	0.056821052
8	0x3dd508b2	0.10402049
9	0x3df0935f	0.11746859
10	0xbdf97a73	-0.121815585
11	0x3d52a920	0.05143082
12	0x3ede7e74	0.4345585
13	0x3ee09c77	0.43869373
14	0x3d057691	0.032583777
15	0x3c303184	0.010753993
16	0x3ca723c8	0.020402804
17	0x3df755d5	0.12076918
18	0x3dfbfd24	0.12304142
19	0x3dada25a	0.08478232
20	0x3dcb3e19	0.099239536
21	0xbdc18444	-0.09449056
22	0xbdcfd5b0	-0.101481795
23	0xbd8c5de2	-0.06853844
24	0x3dedb674	0.11607066
25	0x3d30939a	0.043109514
26	0x3d9ffc19	0.07811756
27	0xbdebec3f	-0.1151967
28	0x3dca25f5	0.09870521
29	0x3de59837	0.11210673
30	0xbe330b49	-0.17484774
31	0x3d07eae2	0.033182986
32	0xbdc1a982	-0.09456159
33	0x3d91f9dc	0.07127735
34	0x3d774419	0.060367677
35	0x3d451f4e	0.048125558
36	0x3cd3b52d	0.025843227
37	0xbe2ca65f	-0.1686034
38	0x3e081c9f	0.13292168
39	0xbe7ef3c5	-0.24897678
40	0xbcc380ff	-0.023865221
41	0xbdaeaf07	-0.085294776
42	0x3dc2053a	0.09473653
43	0x3e0ef3c9	0.13960184
44	0x3daa566f	0.08317267
45	0x3d94aa13	0.072590016
46	0x3c943f3f	0.018096564
47	0x3e27f80d	0.16403218

weight f4 [48]
0	0x3f33ad43	0.7018625
1	0x3f2bfcf3	0.67182845
2	0x3e21a9de	0.15787455
3	0x3ed22c30	0.41049337
4	0x3ef73abf	0.48287007
5	0x3f039bf7	0.5140986
6	0x3f2efb03	0.68351763
7	0x3ee3cf8c	0.44494283
8	0x3e28a5e0	0.16469526
9	0x3f1c4fd0	0.61059284
10	0x3f0056ee	0.50132644
11	0x3ed33f91	0.41259435
12	0x3efee073	0.49780616
13	0x3ebd986a	0.37030345
14	0x3f09d659	0.53842694
15	0x3e9aba3f	0.3022022
16	0x3dcdea45	0.10054449
17	0x3f3b6e3c	0.7321508
18	0x3e03bf4e	0.12865946
19	0x3eed92e3	0.46401128
20	0x3e55c8be	0.20877358
21	0x3f129b61	0.5726834
22	0x3f08ad26	0.53389204
23	0x3e390ce2	0.1807132
24	0x3dda9de8	0.106746495
25	0x3f54018d	0.82814866
26	0x3df07336	0.11740725
27	0x3e06fd30	0.13182521
28	0x3f5be6c2	0.85898983
29	0x3da0fa07	0.07860189
30	0xbe4619b2	-0.1934574
31	0x3f51d157	0.8196005
32	0x3d9e4e46	0.07729773
33	0x3eea081b	0.4570931
34	0x3eb8da2a	0.36103946
35	0x3e22a6b4	0.15883905
36	0x3e575cd7	0.2103151
37	0x3e6613ae	0.22468445
38	0x3eff9e4a	0.49925452
39	0x3e89cae8	0.26912618
40	0x3e52f41e	0.20600936
41	0x3e547372	0.20747164
42	0x3e7d5bfc	0.2474212
43	0x3e294062	0.16528466
44	0x3eaccf45	0.33751884
45	0x3ed78ed6	0.42101163
46	0x3dd3ad56	0.103357956
47	0x3ec6ba62	0.38814074

bias f4 [48]
0	0x3d853a26	0.065052316
1	0x3d86c11b	0.06579801
2	0x3d081329	0.033221398
3	0x3d1afa63	0.037836444
4	0x3ba82eeb	0.005132546
5	0x3d62e993	0.055398535
6	0xbc36592c	-0.011129659
7	0x3d84895c	0.06471512
8	0x3ca7e954	0.020497002
9	0x3df46544	0.119333774
10	0x3c6bbc5d	0.014388171
11	0x3d5b8de1	0.053602103
12	0xbd97a944	-0.07405332
13	0xbe6aaa4b	-0.22916524
14	0x3bbbeacc	0.005734777
15	0x3d55bd6b	0.052182596
16	0xbdb3bd54	-0.08776346
17	0x3c651179	0.013981217
18	0x3c0a458f	0.008439436
19	0x3cd0bf05	0.02548171
20	0x3c58aa44	0.013224188
21	0x3db529ff	0.08845901
22	0x3d91f606	0.07127003
23	0xbca4b0ad	-0.020103777
24	0xbc806c08	-0.015676513
25	0xbd6b56ff	-0.057456013
26	0x3c8282b2	0.015931461
27	0x3c6774dd	0.0141269835
28	0x3c6abc70	0.014327154
29	0x3d0da1de	0.034578197
30	0xbd199533	-0.037495803
31	0x3af6b75d	0.0018822957
32	0x3c2fce69	0.010730364
33	0xbb127700	-0.0022348762
34	0xba4a1042	-0.0007708111
35	0x3d40812d	0.04699819
36	0x3adf6885	0.0017044699
37	0x3ce81725	0.028331349
38	0x3d175b11	0.036952082
39	0x3d854308	0.06506926
40	0xbc06853c	-0.0082104765
41	0x3ce921a1	0.028458418
42	0x3ce5767e	0.028010603
43	0x3d15eea5	0.036604542
44	0x3d7f97fd	0.062400807
45	0x3debb4b4	0.11509076
46	0x3b6de0b2	0.003629726
47	0xbccbef98	-0.02489452

running_mean f4 [48]
0	0x403ee8dc	2.9829626
1	0x40465e68	3.099512
2	0x4002f2ab	2.0460613
3	0x4010025a	2.2501435
4	0x3f8b680f	1.0891131
5	0x3fbf6884	1.4953771
6	0x3f8c119b	1.0942873
7	0x3fb6eabf	1.4290389
8	0x3fba521a	1.4556305
9	0x40244f1d	2.5673287
10	0x3fe8d6e4	1.819058
11	0x3faeca42	1.3655474
12	0x3faac4a0	1.3341255
13	0x3f8a8edc	1.0824847
14	0x4038825a	2.882956
15	0x3fc05a2b	1.5027517
16	0x401a1536	2.4075446
17	0x3fe9f73f	1.8278579
18	0x3fd02251	1.6260473
19	0x404b7943	3.1792762
20	0x40589933	3.3843505
21	0x3f96314b	1.1733793
22	0x3ffad795	1.959704
23	0x40308255	2.7579548
24	0x4023c4e3	2.558892
25	0x4030f55c	2.7649755
26	0x404a0e3e	3.1571193
27	0x3fbf4b46	1.4944847
28	0x404bd6bf	3.184982
29	0x40086656	2.131246
30	0x3fa5be16	1.2948635
31	0x400c2712	2.1898847
32	0x3fa8bd79	1.3182822
33	0x401dedc2	2.4676366
34	0x3ff0237a	1.8760827
35	0x3fbfb0a9	1.4975787
36	0x400b1aa9	2.1735022
37	0x3fb9b1bf	1.4507369
38	0x401ce8cb	2.4517086
39	0x3fa85cd4	1.3153329
40	0x400335ec	2.0501661
41	0x3f86c0c9	1.0527583
42	0x400a5956	2.1617026
43	0x3f8b6cb2	1.0892546
44	0x3ff04d63	1.8773617
45	0x3fa3e13e	1.2803113
46	0x402677a4	2.6010523
47	0x3faf2b00	1.3684998

running_var f4 [48]
0	0x41c7b698	24.964157
1	0x423d55c3	47.33375
2	0x41b0e05f	22.109556
3	0x41b4bbb1	22.591646
4	0x4063f33c	3.5617208
5	0x413e1fcf	11.882766
6	0x40c0b64f	6.0222545
7	0x40acd712	5.4012537
8	0x40efe4fd	7.4967027
9	0x4214048f	37.00445
10	0x418f240d	17.892603
11	0x40f7f05b	7.7480903
12	0x40cf06d5	6.469584
13	0x406624ef	3.5960042
14	0x4228e817	42.22665
15	0x413fa86f	11.9786215
16	0x41962be8	18.771439
17	0x4140df85	12.05457
18	0x4104ecb0	8.307785
19	0x42753185	61.29836
20	0x425ed110	55.704163
21	0x40e76548	7.2311134
22	0x414731f2	12.449694
23	0x421cad6b	39.169353
24	0x41a08a1f	20.067442
25	0x420de614	35.474686
26	0x41d8d5ff	27.10449
27	0x41044841	8.26764
28	0x426adac3	58.713634
29	0x412f5786	10.958868
30	0x40a78234	5.234644
31	0x417fcd26	15.987585
32	0x4091c003	4.554689
33	0x4192e928	18.363846
34	0x417d9a54	15.850178
35	0x40f468a7	7.637775
36	0x41843cd3	16.5297
37	0x4121fec2	10.124697
38	0x41cdb750	25.714508
39	0x40a3e8a5	5.122149
40	0x4166c148	14.422188
41	0x4042e64d	3.0453064
42	0x41c8927a	25.071522
43	0x407fcafd	3.9967644
44	0x410a4f1f	8.644317
45	0x409ccce7	4.9000125
46	0x419aaea4	19.335274
47	0x4082de63	4.089647
