Checkpoints/AEFPNC_Gray.pth (torch_old, 898234 bytes, 63 tensors)

weight f4 [16, 1, 3, 3]
0.17650859 0.17534973 -0.19242117 -0.29311854 0.31717098 -0.015025857 0.16975634 -0.23142777
0.21749793 -0.15124826 0.28768125 0.33841228 -0.15747043 0.2566565 -0.123387486 -0.13479923
-0.20259137 -0.10775609 -0.04361736 -0.21854144 -0.1823634 0.11425798 0.21635133 -0.14988281
0.10221431 0.18175471 -0.012601012 -0.24245943 -0.19061068 0.014876836 0.31260803 0.10966686
0.17638081 -0.2594077 -0.12080527 0.0028732463 0.015925927 -0.19096257 -0.039565954 -0.07339957
-0.16043131 0.13528697 0.189771 -0.12962776 0.23493484 0.25786868 0.12455577 0.14591156
0.11279245 0.23053154 -0.19119512 0.06800876 0.30662614 -0.067900896 -0.21109496 -0.16247308
-0.28755718 0.24407355 0.33537737 -0.2552036 -0.26168555 -0.054617133 -0.35288027 -0.11501203
-0.26459783 -0.12869318 -0.305169 -0.008385547 -0.32927597 0.09900811 -0.20987418 0.19865806
0.26223856 -0.17423768 -0.100039735 0.1691821 -0.23465925 -0.1315841 -0.2546979 -0.0042596064
0.09944546 0.10255357 -0.12616524 0.11364446 0.23758353 0.046294656 -0.30427638 0.08060922
-0.2026775 0.20743355 -0.023722587 -0.20328014 -0.19873641 -0.1672495 0.001720449 0.30451673
-0.012108216 0.24562998 0.08104473 -0.047804847 -0.094227806 -0.18097214 0.13418737 -0.18004602
0.008451303 0.07040275 -0.059398483 -0.25950006 0.018499365 0.07343323 0.07409395 -0.1662692
0.19989176 0.17484099 -0.24993524 0.037995573 -0.20220587 0.04935165 0.00687647 -0.24722946
-0.068358086 0.16476017 -0.049058095 -0.074383385 -0.22356302 0.36256236 0.23725107 0.31149462
-0.22478837 -0.27905202 -0.19884954 0.052566126 -0.027404962 -0.2350897 -0.020891739 0.06296874
0.08614375 0.007279688 -0.15474288 0.3578175 0.11105131 0.016394889 -0.19777443 0.023681713
00000000: abbe 343e e18e 333e 0e0a 45be a213 96be
00000010: 3c64 a23e 032f 76bc 9bd4 2d3e 67fb 6cbe
00000020: c7b7 5e3e d3e0 1abe f54a 933e 6044 ad3e
00000030: ee3f 21be 7b68 833e 94b2 fcbd cf08 0abe
00000040: 1d74 4fbe 3aaf dcbd 1ea8 32bd 54c9 5fbe
00000050: 79bd 3abe 1600 ea3d 348b 5d3e e17a 19be
00000060: bc55 d13d e81d 3a3e 7a74 4ebc 4947 78be
00000070: 722f 43be f9bd 733c 290e a03e 0599 e03d
00000080: 2c9d 343e 16d1 84be c168 f7bd 134d 3c3b
00000090: 1777 823c b18b 43be e90f 22bd 8452 96bd
000000a0: 1b48 24be ab88 0a3e 5453 423e 24bd 04be
000000b0: c292 703e 5d07 843e 1817 ff3d d769 153e
000000c0: baff e63d 7610 6c3e a7c8 43be 2d48 8b3d
000000d0: 1afe 9c3e a00f 8bbd 4729 58be 585f 26be
000000e0: b23a 93be 6bee 793e 95b6 ab3e 0caa 82be
000000f0: a6fb 85be 37b6 5fbd b9ac b4be 6d8b ebbd
00000100: 5e79 87be 25c8 03be 1c3f 9cbe 8963 09bc
00000110: dc96 a8be c4c4 ca3d 42e9 56be 056d 4b3e
00000120: 2244 863e 5d6b 32be a2e1 ccbd 133e 2d3e
00000130: 844a 70be fbbd 06be c367 82be 2b94 8bbb
00000140: 10aa cb3d 9b07 d23d 7631 01be 6dbe e83d
00000150: 1949 733e 779f 3d3d 1dca 9bbe 7216 a53d
00000160: b18a 4fbe 7669 543e df55 c2bc ab28 50be
00000170: 8f81 4bbe 7443 2bbe b080 e13a 9ee9 9b3e
00000180: 8a61 46bc 6d86 7b3e c8fa a53d 04cf 43bd
00000190: 82fa c0bd c350 39be 6a68 093e fc5d 38be
000001a0: 5577 0a3c 512f 903d d34b 73bd 31dd 84be
000001b0: fb8b 973c 2964 963d 92be 973d 7942 2abe
000001c0: 6db0 4c3e 8409 333e 06ef 7fbe 3fa1 1b3d
000001d0: 0e0f 4fbe f524 4a3d 0354 e13b b829 7dbe
000001e0: 53ff 8bbd e4b6 283e 24f1 48bd 5156 98bd
000001f0: b4ed 64be c6a1 b93e f2f1 723e 397c 9f3e
00000200: ec2e 66be e8df 8ebe 379f 4bbe 944f 573d
00000210: 5f80 e0bc 5bbb 70be 2725 abbc c1f5 803d
00000220: 226c b03d 738a ee3b eb74 1ebe db33 b73e
00000230: df6e e33d 934e 863c 6185 4abe 2700 c23c

bias f4 [16]
0.19713429 0.29076084 0.24927 0.13501717 0.021502664 -0.27662143 -0.14095579 0.14056402
0.31010228 0.23097429 0.16022043 -0.29523936 0.10970538 0.08197177 -0.112162694 -0.14133418
00000000: 92dd 493e 9bde 943e a340 7f3e f141 0a3e
00000010: 5b26 b03c 53a1 8dbe b756 10be 04f0 0f3e
00000020: bac5 9e3e 8684 6c3e d310 243e 9d29 97be
00000030: 37ad e03d d1e0 a73d 8eb5 e5bd e8b9 10be

weight f4 [16]
0.058900464 0.95345825 0.9395631 0.15060872 0.23038183 0.76069915 0.07378106 0.4028783
0.7769179 0.8443943 0.6014555 0.37586263 0.6744676 0.19043942 0.3187333 0.71375024
00000000: 9d41 713d d715 743f 3587 703f 2c39 1a3e
00000010: 37e9 6b3e 2ebd 423f 861a 973d 1146 ce3e
00000020: 17e4 463f 3a2a 583f fdf8 193f 1171 c03e
00000030: e9a9 2c3f 8d02 433e 0331 a33e 56b8 363f

bias f4 [16]
0.0108548 -0.010931565 -0.04958454 -0.0011880226 -0.012576056 0.007450915 0.010437503 -0.00059951586
-0.0068990164 0.0014162376 0.004281805 0.065525435 0.006054338 -0.0010907622 0.05024997 0.07758515
00000000: 55d8 313c 4f1a 33bc 2919 4bbd 6cb7 9bba
00000010: cd0b 4ebc ce26 f43b 1002 2b3c d428 1dba
00000020: 2511 e2bb 0ca1 b93a 624e 8c3b 3332 863d
00000030: 7863 c63b e8f7 8eba ead2 4d3d f7e4 9e3d

running_mean f4 [16]
0.23103176 0.28969744 0.23850363 0.15609777 0.051609483 0.05659663 0.089419566 0.2181999
0.29747364 0.2371317 0.16651738 0.007327122 0.11973282 0.10600602 0.045440372 0.03869477
00000000: 9793 6c3e 3953 943e 4c3a 743e 18d8 1f3e
00000010: 7764 533d ded1 673d 9b21 b73d cb6f 5f3e
00000020: 774e 983e a7d2 723e 8883 2a3e 5b18 f03b
00000030: 7b36 f53d af19 d93d af1f 3a3d 687e 1e3d

running_var f4 [16]
0.04785452 0.0248011 0.015624611 0.016544681 0.005776321 0.016635371 0.021128094 0.055562418
0.019524619 0.027033411 0.015468538 0.0008369443 0.01029227 0.012427797 0.0075128875 0.0065647857
00000000: 1a03 443d ad2b cb3c 5efe 7f3c b688 873c
00000010: 4b47 bd3b e746 883c d314 ad3c 6b95 633d
00000020: 18f2 9f3c 2c75 dd3c c06f 7d3c 6266 5b3a
00000030: e9a0 283c f59d 4b3c ab2e f63b 6a1d d73b

weight f4 [32, 16, 3, 3]
0.040635303 0.054124672 -0.04150465 0.07138059 0.039086174 0.00908556 -0.1248578 0.0054958253
0.01614369 -0.036138885 -0.02057774 -0.03398065 0.056088403 0.08483639 -0.106952004 0.06960186
-0.004997314 -0.16701105 -0.07037719 0.12422181 0.13569684 -0.060137056 0.096130244 0.10020507
-0.0831306 -0.117682606 -0.05836135 0.06755799 -0.086783156 -0.008830298 -0.0025479565 0.09735262
0.12372556 -0.00559862 0.0009059817 0.029962506 -0.0048720855 0.13342015 -0.08172125 -0.1359474
-0.07537919 -0.12837644 -0.0002661438 -0.10182662 0.084291495 0.01795081 -0.03416207 -0.028812975
0.032828886 0.09030643 -0.029037049 0.043422405 -0.038289107 0.024388013 -0.0021463565 -0.0027984008
-0.06344252 -0.13903165 -0.030128848 -0.015117675 0.005397002 -0.0987043 -0.062476065 -0.053316373
-0.10548834 0.0022279646 -0.050252438 -0.020223035 0.0066027306 -0.1141187 0.02497488 0.045366134
0.0823596 -0.040414408 0.10001444 -0.08515238 -0.11195991 0.051391654 -0.1117212 0.07806008
0.12377543 -0.13802886 -0.103983894 -0.02728101 -0.06649635 -0.027108178 0.06003846 0.030506214
0.10041582 -0.06750814 0.079976544 -0.011205878 -0.062084142 0.06452354 -0.13396136 0.004101289
0.025634324 -0.016347883 0.10059685 -0.08796362 0.016308911 0.015311835 -0.025399458 -0.065349154
0.08359789 0.043397993 0.052051894 -0.026670367 0.21787845 -0.047463693 0.058308307 0.022464387
0.09099946 -0.020008408 -0.057023738 0.003675262 -0.11704414 0.01766957 0.04198479 -0.04974778
-0.044987172 -0.061482314 0.09219422 0.022052782 0.0303482 0.1541938 -0.07121031 -0.05526393
-0.018657045 -0.04617326 -0.029024463 -0.047016267 -0.047636155 0.006343632 -0.07669283 0.033600856
-0.049081404 6.785021e-07 0.14277531 0.10336391 0.09627142 0.078927636 -0.0006347942 0.015985925
-0.035251226 -0.00010067722 0.06489551 -0.16000304 0.07534469 0.024614269 -0.09770132 -0.04461395
-0.0014356865 -0.015471664 0.047765505 -0.06928869 -0.022560718 -0.05219049 -0.045210212 -0.006164039
0.036963798 -0.014372193 -0.04607211 -0.08360775 0.065327935 0.16162845 -0.08515678 0.04125517
0.032704543 -0.07418645 -0.008695717 -0.01743884 0.08105637 -0.01883532 -0.022131165 0.07634882
-0.080098644 -0.018466037 0.027669778 -0.13501257 0.0076709357 0.036072906 -0.02166402 0.05593898
0.080943085 -0.06551059 -0.0006166514 0.08737261 -0.024132704 -0.08700489 -0.044133294 0.061198425
-0.07381956 -0.052989867 0.08956672 -0.017314807 0.019408451 0.046967253 0.0877121 0.100938864
0.048720274 0.082548566 -0.057400186 0.06534562 -0.022715127 0.028336907 0.03439478 -0.055573985
-0.024184639 0.03227052 0.03405739 0.054956052 -0.0021348246 -0.023706166 -0.009585665 -0.015943954
-0.064407185 0.0057910504 -0.039259326 0.12647031 -0.049845975 0.007817052 0.014603245 -0.007292792
-0.09347488 0.014354536 -0.11608561 0.0643364 -0.01645066 -0.11914832 0.035617135 0.032897703
-0.033693526 -0.07065796 -0.108231016 -0.056568235 -0.076027915 -0.07484548 0.049156852 -0.13738889
0.035522144 0.04408347 -0.09343613 -0.07566954 -0.021609649 0.04748549 -0.07823763 -0.030737665
-0.005524524 -0.040167034 0.041728005 0.030464623 -0.012921853 0.10713541 -0.06874499 -0.0033999013
00000000: 3471 263d d5b1 5d3d c800 2abd fd2f 923d
00000010: d318 203d 9adb 143c 72b5 ffbd 5316 b43b
00000020: c63f 843c 5e06 14bd a692 a8bc 4b2f 0bbd
00000030: f4bc 653d b4be ad3d a709 dbbd 6c8b 8e3d
00000040: 82c0 a3bb f204 2bbe eb21 90bd 0168 fe3d
00000050: 1df4 0a3e 4652 76bd efdf c43d 5138 cd3d
00000060: 6040 aabd 9403 f1bd 500c 6fbd d85b 8a3d
00000070: 5ebb b1bd f4ac 10bc 9efb 26bb cf60 c73d
00000080: d463 fd3d a174 b7bb 677f 6d3a ee73 f53c
00000090: 04a6 9fbb 4b9f 083e 795d a7bd cc35 0bbe
000000a0: 6860 9abd 1d75 03be 3789 8bb9 7a8a d0bd
000000b0: 05a1 ac3d 940d 933c 87ed 0bbd 3009 ecbc
000000c0: 9577 063d 94f2 b83d 1bdf edbc b1db 313d
000000d0: 0ad5 1cbd 5fc9 c73c e3a9 0cbb 6065 37bb
000000e0: 27ee 81bd 505e 0ebe c6d0 f6bc 20b0 77bc
000000f0: 56d9 b03b 7b25 cabd e7e6 7fbd 4562 5abd
00000100: 450a d8bd 0b03 123b 80d5 4dbd c7aa a5bc
00000110: b85b d83b 11b7 e9bd 1f98 cc3c d7d1 393d
00000120: 26ac a83d 9489 25bd 5fd4 cc3d 5f64 aebd
00000130: 3d4b e5bd 0e80 523d 16ce e4bd f7dd 9f3d
00000140: f97d fd3d 7057 0dbe 82f5 d4bd 6d7c dfbc
00000150: 3d2f 88bd f811 debc e3ea 753d 2be8 f93c
00000160: cfa6 cd3d b541 8abd beca a33d dc98 37bc
00000170: f14b 7ebd eb24 843d 2b2d 09be 1b64 863b
00000180: 13ff d13c ffeb 85bc b905 ce3d 4526 b4bd
00000190: 449a 853c 7ede 7a3c 8612 d0bc c7d5 85bd
000001a0: 5f35 ab3d 18c2 313d 5e34 553d d07b dabc
000001b0: 871b 5f3e 4a69 42bd b1d4 6e3d 3c07 b83c
000001c0: ed5d ba3d ace8 a3bc b991 69bd aadc 703b
000001d0: d7b4 efbd c6bf 903c 3ef8 2b3d 54c4 4bbd
000001e0: 7844 38bd e1d4 7bbd 53d0 bc3d 09a8 b43c
000001f0: ca9c f83c fbe4 1d3e b6d6 91bd 6e5c 62bd
00000200: a9d6 98bc 2c20 3dbd b6c4 edbc 2194 40bd
00000210: 211e 43bd 3ede cf3b 2111 9dbd 0da1 093d
00000220: 9509 49bd 4f22 3635 b133 123e 75b0 d33d
00000230: f329 c53d d0a4 a13d 5168 26ba eaf4 823c
00000240: 9763 10bd ac22 d3b8 f0e7 843d d6d7 23be
00000250: 514e 9a3d dda3 c93c a117 c8bd 1ebd 36bd
00000260: a52d bcba dd7c 7dbc c3a5 433d 3be7 8dbd
00000270: 41d1 b8bc b2c5 55bd 582e 39bd b5fb c9bb
00000280: 5a67 173d 5979 6bbc 1cb6 3cbd 8a3a abbd
00000290: a7ca 853d ee81 253e ae66 aebd 2efb 283d
000002a0: 33f5 053d 11ef 97bd 7b78 0ebc e6db 8ebc
000002b0: e200 a63d 874c 9abc 6b4c b5bc c55c 9c3d
000002c0: c20a a4bd 1646 97bc bbab e23c bc40 0abe
000002d0: 795c fb3b 2fc1 133d be78 b1bc 4620 653d
000002e0: 7dc5 a53d 6b2a 86bd c6a6 21ba 69f0 b23d
000002f0: f3b1 c5bc 9f2f b2bd 1dc5 34bd 33ab 7a3d
00000300: b62e 97bd e70b 59bd c26e b73d c8d7 8dbc
00000310: 79fe 9e3c bc60 403d 67a2 b33d 09b9 ce3d
00000320: e98e 473d 390f a93d 751c 6bbd edd3 853d
00000330: 1315 babc cd22 e83c 8ae1 0c3d 8ca1 63bd
00000340: dd1e c6bc 182e 043d c37f 0b3d 9919 613d
00000350: 6ae8 0bbb 6f33 c2bc 310d 1dbc e59c 82bc
00000360: eae7 83bd dac2 bd3b 63ce 20bd 6f81 013e
00000370: 4b2b 4cbd 1813 003c 7342 6f3c 60f8 eebb
00000380: c26f bfbd 4a2f 6b3c 4bbe edbd cdc2 833d
00000390: 89c3 86bc 0904 f4bd 46e3 113d bebf 063d
000003a0: 3902 0abd 1fb5 90bd 39a8 ddbd 18b4 67bd
000003b0: 86b4 9bbd 9648 99bd b258 493d acaf 0cbe
000003c0: ab7f 113d de90 343d 715b bfbd a2f8 9abd
000003d0: b806 b1bc 2580 423d 0d3b a0bd 8ecd fbbc
000003e0: 1107 b5bb 3086 24bd fcea 2a3d f290 f93c
000003f0: 2eb6 53bc cf69 db3d 2cca 8cbd e1d0 5ebb

bias f4 [32]
-0.017924743 0.00602666 0.039153986 0.06170257 -0.035867512 0.12837422 -0.0776325 -0.025374763
-0.050081488 -0.066711135 -0.050828435 0.03711073 0.0046821535 0.011790786 0.084057264 -0.13914053
-0.17262496 -0.050292723 -0.049183413 0.13055257 -0.054967523 -0.12807816 0.073085144 0.038976446
0.13685264 -0.029734159 0.092276104 0.038747407 0.015323557 0.04786523 -0.046015147 0.0008690084
00000000: e9d6 92bc 4a7b c53b ee5f 203d d6bb 7c3d
00000010: d0e9 12bd 8874 033e cafd 9ebd bcde cfbc
00000020: 3f22 4dbd d99f 88bd 7a31 50bd 6c01 183d
00000030: c06c 993b 242e 413c 3726 ac3d db7a 0ebe
00000040: 99c4 30be beff 4dbd 8c74 49bd 93af 053e
00000050: a025 61bd ec26 03be aaad 953d c4a5 1f3d
00000060: 1923 0c3e 0d95 f3bc 41fb bc3d 9ab5 1e3d
00000070: a80f 7b3c 550e 443d 617a 3cbd 2bce 633a

weight f4 [32]
0.18983229 0.45882273 0.58971256 0.5207085 0.52630067 0.78471345 0.32878292 0.11592038
0.70811117 0.47367197 0.3916642 0.31203473 0.7336801 0.26096725 0.6658655 0.28704065
0.38867617 0.2035418 0.279202 0.7634962 0.816234 0.23496294 0.5648686 0.6730852
0.20738548 0.108092204 0.62930804 0.7501787 0.55340946 0.506863 0.31813735 0.50860953
00000000: 6563 423e d0ea ea3e 67f7 163f 274d 053f
00000010: a4bb 063f fbe2 483f 3c56 a83e aa67 ed3d
00000020: c646 353f 2285 f23e 3688 c83e 04c3 9f3e
00000030: 76d2 3b3f 809d 853e 2976 2a3f fef6 923e
00000040: 9000 c73e 436d 503e 91f3 8e3e 7d74 433f
00000050: b6f4 503f 209a 703e 3b9b 103f 504f 2c3f
00000060: dc5c 543e 725f dd3d 551a 213f b60b 403f
00000070: 3eac 0d3f c6c1 013f e6e2 a23e 3c34 023f

bias f4 [32]
0.01640155 0.033320654 -0.077973135 0.031142345 -0.00046432388 -0.058357414 -0.031066677 -0.045035675
-0.025686916 0.025572648 0.08475045 -0.035986334 0.06562185 -0.0074585085 -0.08886589 -0.013616153
-0.037368458 -0.018227942 0.013745079 -0.08706341 0.08451756 -0.015193452 -0.062326364 0.04969238
-0.09987542 0.023244338 -0.0068819146 -0.007282353 0.000109474975 0.010591559 0.026581049 0.029912252
00000000: 8b5c 863c 3d7b 083d 61b0 9fbd 3b1e ff3c
00000010: 7f70 f3b9 2f08 6fbd 8b7f febc 5477 38bd
00000020: 5e6d d2bc bb7d d13c a591 ad3d 6866 13bd
00000030: c064 863d 8166 f4bb 52ff b5bd 4916 5fbc
00000040: ab0f 19bd c452 95bc 0a33 613c 4d4e b2bd
00000050: 8b17 ad3d f5ed 78bc ee49 7fbd 3d8a 4b3d
00000060: 7c8b ccbd e96a be3c af81 e1bb cea0 eebb
00000070: ee95 e538 3888 2d3c 80c0 d93c 8a0a f53c

running_mean f4 [32]
0.19677854 0.16554932 0.19694729 0.24409752 0.11492736 0.2071618 0.19030215 0.101715274
0.14194173 0.14254694 0.2034244 0.2008879 0.20425601 0.24214 0.1976045 0.17489368
0.08404454 0.18727702 0.19285128 0.17598839 0.243092 0.084671825 0.20002598 0.23911077
0.17221244 0.18998924 0.24301217 0.22255056 0.22609156 0.24101885 0.13659853 0.19654314
00000000: 5080 493e c385 293e 8dac 493e b3f4 793e
00000010: 095f eb3d 3922 543e 91de 423e 1950 d03d
00000020: 2c59 113e d3f7 113e 7c4e 503e 8fb5 4d3e
00000030: 7d28 513e 8cf3 773e d658 4a3e 5417 333e
00000040: 8b1f ac3d 8cc5 3f3e ce7a 453e 4d36 343e
00000050: 1ced 783e 6c68 ad3d 9cd3 4c3e 74d9 743e
00000060: 7558 303e 8a8c 423e 2fd8 783e 4be4 633e
00000070: 8c84 673e a5cd 763e 7ce0 0b3e 9b42 493e

running_var f4 [32]
0.113172024 0.05062274 0.060991596 0.12276018 0.039071333 0.06317258 0.083140835 0.0255887
0.047967073 0.04028389 0.080303006 0.05309435 0.046914186 0.12293106 0.04915023 0.1279005
0.032238264 0.075186506 0.06992395 0.038443767 0.25762412 0.026334079 0.051573094 0.109713666
0.05409267 0.085730866 0.08323342 0.15981653 0.079862475 0.13332836 0.055377983 0.085932255
00000000: bcc6 e73d ca59 4f3d 53d2 793d b069 fb3d
00000010: 4309 203d a060 813d be45 aa3d 659f d13c
00000020: 1f79 443d b800 253d e775 a43d 7679 593d
00000030: 1729 403d 48c3 fb3d c051 493d 59f8 023e
00000040: 450c 043d 62fb 993d 4a34 8f3d 3677 1d3d
00000050: 4fe7 833e 91ba d73c 4f3e 533d 8fb1 e03d
00000060: 4790 5d3d aa93 af3d 4976 aa3d f2a6 233e
00000070: f08e a33d 3b87 083e 06d4 623d 40fd af3d

weight f4 [64, 32, 3, 3]
0.06727514 0.103997305 0.067725584 0.004422967 -0.0066274926 0.073439755 0.014453042 -0.098248184
0.0450324 -0.011030407 0.034005184 0.057844695 -0.054917555 0.023966463 0.043244183 -0.10435523
0.043761484 0.08119742 -0.06013585 -0.005264047 0.06412161 -0.06873302 -0.08077 0.06370836
-0.074952476 -0.025757832 -0.00366883 0.010320072 0.016543021 0.018741114 -0.013357745 -0.10986087
-0.008866576 -0.00080374593 -0.056823194 0.0267883 -0.011479997 -0.028701784 -0.027034026 0.011665208
-0.00030249104 -0.016108407 0.06323523 0.016058467 -0.038271185 -0.015013548 0.105692886 -0.031980906
-0.077393085 0.027715677 0.07794489 -0.09208823 -0.0038568627 0.0564177 0.05240735 -0.036332015
0.0913205 0.041758936 -0.039690077 0.021774169 -0.064927235 -0.07534189 -0.06662818 0.07815958
0.12155802 0.0716938 -0.013549058 0.0109198345 0.035659596 -0.004485697 0.015615368 -0.018952703
-0.15322542 -0.15354401 -0.12822242 -0.13005535 -0.11125584 -0.12678522 -0.16037206 -0.18027563
-0.12351829 -0.030008677 -0.023238147 0.025642734 0.039593235 0.0027508452 -0.0017782286 -0.045746278
-0.045941796 0.034014456 -0.03724287 -0.012185683 0.035243932 0.007362242 0.10339902 0.061606873
0.0050165905 0.04105863 -0.013984954 0.0014404351 -0.079721525 -0.086764336 0.03623331 -0.015046076
0.06494481 0.011585934 -0.09264131 -0.0254576 -0.024584634 0.004660508 0.024912259 -0.028142674
0.024871375 0.0020377084 0.02036724 0.02280868 -0.06822278 0.11211386 0.120267384 0.05792056
-0.045663357 0.07801596 0.085245535 -0.036706693 0.070012614 0.122922584 -0.053090896 -0.012922657
0.03399053 -0.08863358 -0.014743237 0.0737639 -0.08957931 0.021523945 0.06561446 0.029536016
0.039671045 0.091792196 -0.04028017 0.028634418 0.029385995 0.013565811 0.03754782 0.006751124
0.084149644 0.08738979 0.05876342 0.04734244 0.06332115 0.027083827 0.01452768 0.07304364
-0.017433116 -0.044309814 0.03125516 0.07202248 0.11002016 0.0045136176 0.0075290585 0.084922716
0.049987804 0.017628 0.03240214 0.03715015 0.06370195 -0.05306928 -0.002494907 -0.025145452
-0.005640642 -0.011381954 -0.014670539 0.05580833 -0.0223095 -0.030846555 0.021451388 -0.009840019
-0.039442528 0.050702836 0.011284234 0.020642065 0.0014659519 0.078283414 0.043184392 0.022466969
-0.006081361 -0.020037835 0.001391727 -0.047891676 -0.043819286 0.043112423 -0.0002886038 -0.03662362
-0.030219128 0.09262462 0.061824266 -0.035419535 0.04470202 0.083966106 0.030935833 0.0069641653
0.016666448 0.057801723 -0.004249786 0.011852212 -0.06669983 0.03379832 -0.040613227 0.0012384581
0.0548804 -0.03323795 -0.088776305 0.0585917 0.035442002 -0.023808846 -0.086438484 0.009635249
-0.00078917446 -0.0770493 -0.09576153 0.07785399 -0.12002751 -0.10540511 -0.044160694 0.041678425
0.0085710045 -0.08248641 0.06262189 0.056594398 -0.13672973 -0.012635163 0.04678657 -0.10206238
-0.034749884 0.0051210606 0.00057805364 -0.00044733382 0.011131796 -0.033596467 -0.06170098 -0.039503958
-0.040416673 -0.06599961 0.0082804235 -0.022183212 -0.042501453 0.0016008259 0.0058396105 0.035796
0.010983026 0.04966428 -0.056978326 0.014203825 0.06502656 0.025441838 -0.05507244 0.057047978
00000000: 8cc7 893d 8afc d43d b6b3 8a3d 89ee 903b
00000010: 702b d9bb 9567 963d 74cc 6c3c 5836 c9bd
00000020: e573 383d e1b8 34bc 0549 0b3d 8fee 6c3d
00000030: 3bf1 60bd 5155 c43c d020 313d 32b8 d5bd
00000040: 3e3f 333d d54a a63d 0251 76bd 077e acbb
00000050: 3152 833d e6c3 8cbd be6a a5bd 8779 823d
00000060: af80 99bd 1702 d3bc c170 70bb 8515 293c
00000070: 3b85 873c f786 993c 71da 5abc bcfe e0bd
00000080: 1d45 11bc 7ab2 52ba 70bf 68bd 2373 db3c
00000090: 9916 3cbc 0120 ebbc 7676 ddbc 6e1f 3f3c
000000a0: a997 9eb9 c7f5 83bc 7981 813d 0c8d 833c
000000b0: 3fc2 1cbd 62fb 75bc 8375 d83d 69fe 02bd
000000c0: 4480 9ebd fd0b e33c 92a1 9f3d c198 bcbd
000000d0: 6bc3 7cbb 3f16 673d 17a9 563d e1d0 14bd
000000e0: 3e06 bb3d 6b0b 2b3d 1092 22bd be5f b23c
000000f0: 92f8 84bd d94c 9abd 5b74 88bd 2112 a03d
00000100: 69f3 f83d 33d4 923d defc 5dbc 1be9 323c
00000110: cc0f 123d c1fc 92bb 9ad7 7f3c b342 9bbc
00000120: 20e7 1cbe a43a 1dbe bd4c 03be 3b2d 05be
00000130: 1ada e3bd fcd3 01be 9338 24be 2d9a 38be
00000140: 28f7 fcbd c2d4 f5bc ed5d bebc b610 d23c
00000150: 842c 223d 8647 343b 7313 e9ba 7360 3bbd
00000160: 772d 3cbd be52 0b3d fb8b 18bd 75a6 47bc
00000170: f15b 103d f63e f13b dec2 d33d 7d57 7c3d
00000180: 3662 a43b 182d 283d 2621 65bc fbcc bc3a
00000190: 0a45 a3bd 80b1 b1bd 6169 143d d183 76bc
000001a0: c901 853d eed2 3d3c baba bdbd 758c d0bc
000001b0: b765 c9bc 2db7 983b cb14 cc3c 778b e6bc
000001c0: 0ebf cb3c 138b 053b 33d9 a63c 45d9 ba3c
000001d0: 63b8 8bbd f49b e53d bf4e f63d 1c3e 6d3d
000001e0: 8009 3bbd d5c6 9f3d 3695 ae3d c259 16bd
000001f0: c662 8f3d d6be fb3d d775 59bd 8db9 53bc
00000200: a739 0b3d 8685 b5bd 9e8d 71bc 8711 973d
00000210: 5b75 b7bd fc52 b03c e060 863d 84f5 f13c
00000220: 1b7e 223d 8cfd bb3d d2fc 24bd ba92 ea3c
00000230: e6ba f03c 2343 5e3c becb 193d 8838 dd3b
00000240: a656 ac3d 6bf9 b23d e9b1 703d 25ea 413d
00000250: 85ae 813d e7de dd3c 8205 6e3c e797 953d
00000260: e5cf 8ebc 357e 35bd 6905 003d 8680 933d
00000270: 4052 e13d f8e6 933b 52b6 f63b f6eb ad3d
00000280: 03c0 4c3d 9868 903c 1bb8 043d c12a 183d
00000290: 2b76 823d 2c5f 59bd 9881 23bb d6fd cdbc
000002a0: 22d5 b8bb 607b 3abc b35c 70bc 4797 643d
000002b0: 6ac2 b6bc eab1 fcbc d2ba af3c 0838 21bc
000002c0: 7d8e 21bd c7ad 4f3d 82e1 383c 8c19 a93c
000002d0: 2f25 c03a 0e53 a03d 1ee2 303d a60c b83c
000002e0: 2746 c7bb 6326 a4bc 9c6a b63a 102a 44bd
000002f0: da7b 33bd a796 303d bf4f 97b9 a602 16bd
00000300: 1b8e f7bc fab1 bd3d 713b 7d3d 1314 11bd
00000310: 7719 373d 6cf6 ab3d 256d fd3c a733 e43b
00000320: 1388 883c 80c1 6c3d ca41 8bbb c82f 423c
00000330: ec99 88bd 1b70 0a3d 0e5a 26bd c253 a23a
00000340: 45ca 603d 8424 08bd 5ad0 b5bd dafd 6f3d
00000350: a22b 113d c50a c3bc a906 b1bd 2add 1d3c
00000360: 9ae0 4eba 06cc 9dbd 9f1e c4bd ea71 9f3d
00000370: fcd0 f5bd a2de d7bd d8e1 34bd ffb6 2a3d
00000380: 666d 0c3c a3ee a8bd e83f 803d 87cf 673d
00000390: e102 0cbe b703 4fbc 46a3 3f3d 1506 d1bd
000003a0: e555 0ebd 92ce a73b 8688 173a 2188 eab9
000003b0: 2362 363c 739c 09bd 2bba 7cbd e7ce 21bd
000003c0: f48b 25bd ce2a 87bd 9daa 073c 91b9 b5bc
000003d0: 0116 2ebd ced2 d13a 345a bf3b d49e 123d
000003e0: 26f2 333c c66c 4b3d 1b62 69bd 29b7 683c
000003f0: a52c 853d 676b d03c a493 61bd 24ab 693d

bias f4 [64]
-0.021391252 -0.098638065 0.06128347 -0.12860069 -0.058462378 0.020554656 0.025628824 -0.049734283
-0.06913652 -0.04544819 -0.039187144 -0.25196898 -0.048275042 0.0042134565 0.016500417 -0.03354184
-0.021076484 0.00094593933 -0.04962128 -0.015977269 -0.022592349 0.041225553 -0.010582065 -0.13493685
-0.0012568188 -0.07326426 -0.07803339 0.05176317 -0.012004686 -0.105160445 -0.013046232 0.044969127
-0.01556044 -0.022027897 -0.027495233 -0.04462273 -0.0732489 -0.11178167 -0.028225778 -0.02808842
-0.028578779 -0.1536961 -0.059887484 -0.082342684 -0.06720919 0.049582466 0.032655574 0.069131956
-0.051345695 0.013529485 0.06475924 0.05339055 0.08911162 -0.16822304 0.0548714 -0.15080357
-0.05589736 -0.013831156 -0.083783895 -0.025793884 -0.004207644 -0.01454571 0.06882962 -0.045686245
00000000: b53c afbc c102 cabd 6004 7b3d e6af 03be
00000010: 3f76 6fbd 3d62 a83c 8af3 d13c 2db6 4bbd
00000020: 7397 8dbd e227 3abd b382 20bd 1402 81be
00000030: 0dbc 45bd 0911 8a3b e22b 873c 2b63 09bd
00000040: 97a8 acbc eaf8 773a af3f 4bbd c3e2 82bc
00000050: 9713 b9bc 20dc 283d 6660 2dbc e32c 0abe
00000060: d7bb a4ba 930b 96bd f8cf 9fbd 9e05 543d
00000070: 4daf 44bc 5c5e d7bd ddbf 55bc 8c31 383d
00000080: 37f1 7ebc d973 b4bc af3d e1bc 53c6 36bd
00000090: 8503 96bd caed e4bd bf39 e7bc b019 e6bc
000000a0: 0b1e eabc 8362 1dbe 944c 75bd 48a3 a8bd
000000b0: f9a4 89bd fc16 4b3d dac1 053d 0e95 8d3d
000000c0: dd4f 52bd c6aa 5d3c 7ea0 843d 0db0 5a3d
000000d0: 2780 b63d a942 2cbe d5c0 603d 406c 1abe
000000e0: a1f4 64bd 139c 62bc e496 abbd b24d d3bc
000000f0: 47e0 89bb 2151 6ebc 8bf6 8c3d 8021 3bbd

weight f4 [64]
0.83211887 0.25066414 0.26576495 0.33252022 0.08000536 0.8655967 0.527422 0.15952641
0.32512802 0.36045292 0.48439965 0.43813106 0.1837956 0.6228093 0.33084443 0.3368043
0.42850837 0.7702082 0.50826865 0.29543206 0.21625648 0.6381601 0.58985424 0.12431625
0.18519111 0.75546426 0.3733874 0.3747531 0.49625397 0.72169465 0.4909502 0.10935786
0.38031435 0.30872837 0.1200358 0.18185762 0.54579645 0.6166658 0.2599352 0.5601386
0.77772087 0.15034316 0.6851244 0.36812502 0.27496687 0.7778225 0.9379536 0.49036747
0.6963347 0.37804312 0.73230964 0.34458187 0.49881783 0.16917732 0.17776637 0.10831523
0.56367755 0.2525824 0.27498066 0.42498982 0.2727253 0.51544476 0.81377894 0.59584236
00000000: be05 553f 0d57 803e 5812 883e 1740 aa3e
00000010: dad9 a33d bf97 5d3f 2105 073f e45a 233e
00000020: 2e77 a63e 498d b83e 3b03 f83e b752 e03e
00000030: ea34 3c3e 6e70 1f3f 7164 a93e 9d71 ac3e
00000040: 7365 db3e 5d2c 453f e51d 023f df42 973e
00000050: 5772 5d3e 765e 233f b000 173f 8599 fe3d
00000060: bda2 3d3e 1b66 413f a22c bf3e a3df bf3e
00000070: 0015 fe3e fbc0 383f d35d fb3e 04f7 df3d
00000080: 90b8 c23e a511 9e3e 54d5 f53d e238 3a3e
00000090: 51b9 0b3f cfdd 1d3f 3a16 853e 3e65 0f3f
000000a0: b718 473f 8ff3 193e 5064 2f3f e27a bc3e
000000b0: 75c8 8c3e 601f 473f ba1d 703f 7211 fb3e
000000c0: fe42 323f de8e c13e a578 3b3f 096d b03e
000000d0: 0d65 ff3e d23c 2d3e 6308 363e 60d4 dd3d
000000e0: 2c4d 103f 7b52 813e 44ca 8c3e 4498 d93e
000000f0: a7a2 8b3e 30f4 033f d153 503f 2089 183f

bias f4 [64]
-0.030751945 -0.060424574 -0.029961247 -0.0028872376 -0.0015763473 0.014268699 -0.05646133 -0.1029229
-0.024913343 -0.13045798 -0.07716614 -0.06939682 -0.04888761 -0.10371782 -0.074814305 -0.036540084
0.013938205 -0.005945857 -0.0541466 0.0012159534 -0.10912531 -0.04021334 -0.025055943 0.017533153
-0.026441785 -0.0008299155 0.022125281 -0.0838972 -0.014998619 -0.0399438 -0.06889806 -0.028559955
-0.057780392 0.024211194 -0.01822496 -0.011575013 -0.021582766 0.045551546 -0.046970602 -0.009818628
-0.02686688 -0.0497069 -0.018070402 -0.005653551 -0.022642357 -0.0674405 -0.040117074 -0.0029941695
-0.1125268 -0.055376932 -0.028802318 -0.032332 -0.23700196 -0.033539787 0.022368755 -0.056281723
0.00062851474 -0.096839994 -0.022180185 -0.010986009 -0.097363636 -0.08736497 7.118239e-05 0.03260066
00000000: 81eb fbbc c27f 77bd 4a71 f5bc cf37 3dbb
00000010: 709d ceba 43c7 693c ff43 67bd 3ec9 d2bd
00000020: 1117 ccbc c796 05be 4809 9ebd ec1f 8ebd
00000030: 603e 48bd 026a d4bd 3e38 99bd 0eab 15bd
00000040: 125d 643c 77d5 c2bb d3c8 5dbd a060 9f3a
00000050: 177d dfbd beb6 24bd 1f42 cdbc b0a1 8f3c
00000060: 719c d8bc b08e 59ba 1440 b53c 4cd2 abbd
00000070: c5bc 75bc 1c9c 23bd 6d1a 8dbd 91f6 e9bc
00000080: 22ab 6cbd 8e56 c63c 834c 95bc 20a5 3dbc
00000090: 57ce b0bc 4294 3a3d 3f64 40bd 50de 20bc
000000a0: ee17 dcbc 7699 4bbd 6108 94bc 6c41 b9bb
000000b0: 777c b9bc 3f1e 8abd cd51 24bd d439 44bb
000000c0: 7374 e6bd ecd2 62bd d7f2 ebbc 8f6e 04bd
000000d0: a4b0 72be 0461 09bd ae3e b73c aa87 66bd
000000e0: e9c2 243a 0c54 c6bd 38b3 b5bc a9fe 33bc
000000f0: 9666 c7bd 68ec b2bd c147 9538 4588 053d

running_mean f4 [64]
0.18822269 0.10723021 0.2425336 0.20666514 0.25815022 0.21443526 0.2744821 0.18589726
0.17184174 0.12411386 0.17486474 0.10607069 0.11935343 0.18616115 0.18979709 0.14561476
0.25175637 0.28017357 0.20706886 0.21554138 0.11432744 0.27711543 0.28628358 0.12731574
0.17566268 0.15906091 0.15411748 0.20734972 0.23835675 0.085028894 0.21774416 0.29391006
0.15379833 0.18395935 0.105556965 0.21512838 0.21313599 0.23684755 0.28843105 0.23784275
0.2300164 0.14316054 0.20326672 0.18061735 0.090663604 0.31634945 0.2572007 0.28275934
0.106887214 0.11397895 0.3241762 0.25520954 0.1355082 0.097254634 0.2171712 0.11545955
0.23911929 0.1954893 0.16333972 0.16411325 0.1751323 0.121012785 0.3300169 0.19765328
00000000: 73bd 403e 839b db3d ba5a 783e 07a0 533e
00000010: 442c 843e eb94 5b3e eb88 8c3e da5b 3e3e
00000020: 48f7 2f3e 682f fe3d be0f 333e 973b d93d
00000030: 926f f43d 07a1 3e3e 2b5a 423e 091c 153e
00000040: 36e6 803e e972 8f3e dc09 543e e1b6 5c3e
00000050: 8124 ea3d 13e2 8d3e c393 923e 0f5f 023e
00000060: ebe0 333e dde0 223e f9d0 1d3e 7c53 543e
00000070: cb13 743e a123 ae3d 53f8 5e3e 617b 963e
00000080: 4f7d 1d3e d75f 3c3e 402e d83d 9d4a 5c3e
00000090: 5240 5a3e 2a88 723e 3cad 933e 0d8d 733e
000000a0: 6b89 6b3e ad98 123e 2725 503e c1f3 383e
000000b0: d7ad b93d 8ef8 a13e cfaf 833e d5c5 903e
000000c0: afe7 da3d cc6d e93d 6cfa a53e d3aa 823e
000000d0: a9c2 0a3e 702d c73d 2162 5e3e 0e76 ec3d
000000e0: b0db 743e 592e 483e 8742 273e 4e0d 283e
000000f0: e255 333e 8dd5 f73d faf7 a83e 9f65 4a3e

running_var f4 [64]
0.08074649 0.029731708 0.11639898 0.09935949 0.09104136 0.07541516 0.13427107 0.117032334
0.08425972 0.04916286 0.052760463 0.058116484 0.03661139 0.0661795 0.057960667 0.047342435
0.11173284 0.15378775 0.072560534 0.10750627 0.034436077 0.2268204 0.14003056 0.054770876
0.071638525 0.09278393 0.05320078 0.066615 0.07637819 0.030151661 0.07442454 0.113987386
0.06247396 0.09224056 0.034043886 0.071870856 0.07706945 0.09913373 0.20240861 0.12135173
0.107003555 0.09081047 0.08538132 0.110272616 0.030651325 0.13753432 0.1624266 0.122849315
0.036929943 0.02916324 0.1772921 0.12372817 0.0433783 0.039176874 0.072237715 0.05889582
0.12557557 0.04543844 0.08787485 0.06794897 0.046081487 0.03711036 0.21981476 0.091606885
00000000: 6a5e a53d e98f f33c 9762 ee3d fd7c cb3d
00000010: e473 ba3d 4373 9a3d 5b7e 093e a6ae ef3d
00000020: 5c90 ac3d ff5e 493d 5b1b 583d 8d0b 6e3d
00000030: d3f5 153d 1e89 873d 2a68 6d3d 24ea 413d
00000040: 30d4 e43d 897a 1d3e 9e9a 943d 3f2c dc3d
00000050: d80c 0d3d 9b43 683e 2c64 0f3e 6d57 603d
00000060: 38b7 923d 8005 be3d 10e9 593d 726d 883d
00000070: 2b6c 9c3d 9e00 f73c e56b 983d 3872 e93d
00000080: b2e4 7f3d 9ee8 bc3d 9a71 0b3d 0731 933d
00000090: 96d6 9d3d a006 cb3d 3444 4f3e 4187 f83d
000000a0: ae24 db3d d7fa b93d 67dc ae3d 9cd6 e13d
000000b0: 7d18 fb3c ccd5 0c3e 2953 263e 6c98 fb3d
000000c0: da43 173d bfe7 ee3c 0f8c 353e 3265 fd3d
000000d0: 72ad 313d ee77 203d 5ef1 933d be3c 713d
000000e0: e296 003e a81d 3a3d bbf7 b33d d428 8b3d
000000f0: f1bf 3c3d 0801 183d 1f17 613e 649c bb3d

weight f4 [48, 64, 3, 3]
0.009162916 -0.04626064 0.00995782 -0.024559159 -0.025987895 -0.0072961375 0.009780673 -0.024203155
0.0007667696 0.059828486 -0.011054015 -0.026016697 0.034616217 -0.020833354 -0.06602639 -0.066511646
0.0143249575 0.03164137 0.0037955735 -0.03187859 -0.015037665 -0.073974274 -0.081877925 -0.05033396
-0.042237315 -0.01638136 0.017460056 -0.017258294 -0.07371537 0.09162366 -0.022988474 0.10558495
0.00016374254 -0.054885946 -0.03830245 -0.022685748 -0.018666336 -0.06878993 -0.02932433 -0.04931991
0.023007162 0.067214824 -0.062878534 0.057562396 -0.028389832 -0.009677381 -0.054557543 0.021677423
-0.026475478 0.0015503248 0.0044816905 -0.032691494 -0.003861221 0.0074996003 0.016814817 0.021439284
0.0061238552 -0.0093236435 -0.09223604 -0.050279308 -0.04559692 -0.069212906 0.069538385 -0.12122254
-0.028571015 0.035120703 0.05636993 0.11186373 -0.029423302 0.12679483 -0.10101809 -0.10755835
0.026423138 0.06995466 -0.117017955 -0.039533433 -0.008724563 0.056063056 -0.007059095 -0.049970664
-0.007745551 -0.013853309 -0.012622677 0.058634985 -0.08335012 0.0689973 -0.021167174 0.039847557
0.011214192 -0.11256604 0.10944582 0.042046502 -0.054033995 0.0619919 -0.07759965 -0.043840732
-0.02266416 -0.008663038 0.005677571 -0.022439571 0.061037034 0.14802513 -0.0008850861 -0.015055615
0.0422258 0.089301445 0.011319468 0.0063100206 0.0064050085 0.10532327 0.00076156243 0.016169742
-0.069951296 0.05692829 -0.027966598 0.04831875 0.08372692 0.020283898 0.00505675 -0.038797162
-0.089060955 -0.014210084 0.018175509 -0.019479891 -0.06144053 0.034526404 -0.05659719 -0.053883567
0.13647497 0.060970142 0.1088197 0.12992607 -0.03409388 0.07632581 -0.044853933 0.044195767
0.16210794 -0.010082561 0.05067173 0.014132348 -0.038779397 -0.012008284 -0.032555707 -0.029266521
-0.0981988 -0.0062272884 0.027620519 -0.05852041 0.076130874 -0.0726045 -0.0041301753 -0.035589926
-0.057437286 0.0021235743 -0.042034477 0.018098406 0.09028078 -0.040005688 -0.020441372 0.061587557
-0.05361747 -0.07844246 -0.087072074 -0.0036239552 -0.024112644 0.008791368 -0.023153998 0.08120014
-0.0029070221 -0.0626136 -0.015542121 -0.03465387 -0.06415428 0.0124526005 -0.012464128 0.00433693
0.13036202 0.015658457 0.011203595 0.0232955 -0.015370017 0.028126035 -0.012403992 -0.042528532
0.04208348 -0.048528556 0.0088969385 -0.097937 -0.08612948 -0.0431667 -0.033026572 -0.00218078
-0.09993156 0.09599742 0.014160426 -0.012338835 0.014166195 -0.031973977 0.05639252 -0.094235435
-0.07565402 -0.034351368 -0.030841293 -0.033304777 0.07304729 0.038703382 0.022262964 -0.0076599307
0.054135516 0.10308221 0.0384983 0.05789374 -0.047889892 -0.041709784 0.037219383 0.041403715
-0.0061899414 0.015317274 0.055720087 -0.012066486 0.04551644 0.08102193 -0.11521541 -0.047469415
0.04417112 0.053253498 -0.003111417 -0.05255324 -0.023412686 0.026969321 -0.019727802 -0.023129418
-0.013936774 -0.039052628 0.034277804 -0.03320324 0.07176182 -0.016581418 0.061679263 0.060751986
0.04742472 -0.0228395 0.0017539161 0.037957072 -0.096606806 -0.029069314 0.0138154365 0.111714564
0.0041808356 -0.012275186 0.04931429 -0.0076075783 0.09265477 -0.009808128 -0.0032485968 0.050137322
00000000: 0e20 163c cc7b 3dbd 2026 233c 4a30 c9bc
00000010: 91e4 d4bc 7014 efbb 1e3f 203c b245 c6bc
00000020: 0901 493a b70e 753d e61b 35bc f820 d5bc
00000030: bcc9 0d3d b6aa aabc d838 87bd 4237 88bd
00000040: 3ab3 6a3c 629a 013d 28bf 783b 2093 02bd
00000050: 8a60 76bc d37f 97bd 9daf a7bd fc2a 4ebd
00000060: 0901 2dbd 3432 86bc 6408 8f3c 4461 8dbc
00000070: 15f8 96bd 2fa5 bb3d 5352 bcbc ec3c d83d
00000080: 4eb2 2b39 16d0 60bd 08e3 1cbd 76d7 b9bc
00000090: 25ea 98bc bce1 8cbd 9439 f0bc ad03 4abd
000000a0: 8479 bc3c eda7 893d 76c6 80bd 8cc6 6b3d
000000b0: cb91 e8bc e18d 1ebc bb77 5fbd da94 b13c
000000c0: 1ae3 d8bc 4534 cb3a 25db 923b 84e7 05bd
000000d0: 8a0c 7dbb 35bf f53b 3abf 893c 70a1 af3c
000000e0: 9faa c83b 32c2 18bc 40e6 bcbd adf1 4dbd
000000f0: d6c3 3abd 7fbf 8dbd 246a 8e3d 8643 f8bd
00000100: c30d eabc bada 0f3d 28e4 663d d018 e53d
00000110: 2309 f1bc 81d6 013e 93e2 cebd 8d47 dcbd
00000120: 5675 d83c 6444 8f3d 1ca7 efbd cfed 21bd
00000130: 78f1 0ebc 60a2 653d fb4f e7bb 0aae 4cbd
00000140: 64ce fdbb fdf8 62bc 58cf 4ebc 3d2b 703d
00000150: 78b3 aabd 754e 8d3d c866 adbc 3137 233d
00000160: bbbb 373c 0689 e6bd 2125 e03d f438 2c3d
00000170: c052 5dbd 38eb 7d3d 91ec 9ebd 5792 33bd
00000180: 30aa b9bc 6aef 0dbc eb0a ba3b 31d3 b7bc
00000190: f801 7a3d e693 173e 1f05 68ba d4ab 76bc
000001a0: f6f4 2c3d ade3 b63d 4a75 393c 4ac4 ce3b
000001b0: 1be1 d13b bab3 d73d 97a3 473a 6876 843c
000001c0: a042 8fbd a32d 693d 351a e5bc e2e9 453d
000001d0: 0579 ab3d 6b2a a63c 18b3 a53b c6e9 1ebd
000001e0: 9765 b6bd 6ad1 68bc cee4 943c 4b94 9fbc
000001f0: 11a9 7bbd 8f6b 0d3d 75d2 67bd 04b5 5cbd
00000200: 18c0 0b3e d4bb 793d dddc de3d 570b 053e
00000210: 06a6 0bbd b550 9c3d c2b8 37bd 9f06 353d
00000220: a0ff 253e 5331 25bc 298d 4f3d 5d8b 673c
00000230: 25d7 1ebd 65be 44bc 2259 05bd 58c0 efbc
00000240: 741c c9bd 480e ccbb 6d44 e23c 19b3 6fbd
00000250: 81ea 9b3d abb1 94bd 6c56 87bb bec6 11bd
00000260: 5c43 6bbd aa2b 0b3b 582c 2cbd 1c43 943c
00000270: 21e5 b83d 01dd 23bd aa74 a7bc 3c43 7c3d
00000280: fe9d 5bbd 71a6 a0bd d852 b2bd e17f 6dbb
00000290: e187 c5bc ac09 103c 74ad bdbc 424c a63d
000002a0: bd83 3ebb 8f3b 80bd 61a4 7ebc 37f1 0dbd
000002b0: 5263 83bd fe05 4c3c 5836 4cbc ce1c 8e3b
000002c0: 9f7d 053e 2a46 803c 498f 373c 34d6 be3c
000002d0: 86d2 7bbc 9268 e63c 1d3a 4bbc 6632 2ebd
000002e0: ba5f 2c3d e1c5 46bd 77c4 113c 3293 c8bd
000002f0: a764 b0bd 91cf 30bd df46 07bd 6beb 0ebb
00000300: eba8 ccbd 4c9a c43d 2201 683c d328 4abc
00000310: 5419 683c 25f7 02bd d8fb 663d 82fe c0bd
00000320: 7ff0 9abd 05b4 0cbd e1a6 fcbc 976a 08bd
00000330: d199 953d 7087 1e3d d260 b63c 2800 fbbb
00000340: 34bd 5d3d c41c d33d 65b0 1d3d fc21 6d3d
00000350: 3128 44bd e1d7 2abd 5a73 183d f196 293d
00000360: fed4 cabb 4ef5 7a3c bf3a 643d 83b2 45bc
00000370: 726f 3a3d d3ee a53d 0ff6 ebbd 4a6f 42bd
00000380: c7ec 343d 5720 5a3d eae8 4bbb 1142 57bd
00000390: f6cb bfbc c4ee dc3c 339c a1bc e879 bdbc
000003a0: 1157 64bc a6f5 1fbd e266 0c3d 1f00 08bd
000003b0: dcf7 923d c1d5 87bc 65a3 7c3d 13d7 783d
000003c0: 6c40 423d e719 bbbc a9e3 e53a e078 1b3d
000003d0: cad9 c5bd c522 eebc 245a 623c 9bca e43d
000003e0: 64ff 883b dd1d 49bc c8fd 493d fe48 f9bb
000003f0: c9c1 bd3d 45b2 20bc 69e6 54bb cb5c 4d3d

bias f4 [48]
-0.035520107 0.06665035 0.14515439 0.021933643 -0.03495675 0.039652176 -0.14286312 -0.035473727
-0.027211016 -0.0034678876 0.090308756 -0.030679634 0.07092958 -0.01139188 0.09900033 0.0009494578
0.02573216 -0.05686139 -0.025903288 -0.018921902 0.064646885 0.078136474 -0.023922635 0.07462139
-0.008346794 -0.087735176 -0.0012492881 0.080253005 -0.010122706 -0.07631778 0.15172395 0.051843967
0.053254124 0.084846005 0.08438641 -0.040049434 0.08089126 -0.00063281134 0.19212794 0.090263486
-0.057163127 0.043163426 0.04177708 0.029693378 0.08181515 -0.00501032 0.11825706 -0.107850835
00000000: 887d 11bd fb7f 883d 5aa3 143e 2fae b33c
00000010: cf2e 0fbd 526a 223d b64a 12be e64c 11bd
00000020: a3e9 debc 8045 63bb ccf3 b83d db53 fbbc
00000030: 8743 913d 02a5 3abc afc0 ca3d 09e5 783a
00000040: 40cc d23c 7de7 68bd 2233 d4bc 1b02 9bbc
00000050: 9665 843d 0406 a03d 67f9 c3bc 19d3 983d
00000060: fec0 08bc 80ae b3bd 27bf a3ba b05b a43d
00000070: b5d9 25bc 7f4c 9cbd 865d 1b3e 575a 543d
00000080: ff20 5a3d bec3 ad3d c8d2 ac3d e00a 24bd
00000090: 51aa a53d 40e3 25ba 30bd 443e 10dc b83d
000000a0: e223 6abd 22cc 303d 721e 2b3d 873f f33c
000000b0: b48e a73d 9c2d a4bb c230 f23d e6e0 dcbd

weight f4 [48]
0.71853894 0.3856048 0.35410517 0.27602878 0.595725 -0.16195546 0.38756767 0.74564093
0.7568752 0.4798007 0.6679338 0.08636342 0.5412548 0.2958951 0.8267398 0.46058574
0.20147792 0.4119255 0.21464261 0.37947744 0.14102583 0.68054247 0.4744893 0.08352743
0.71798974 0.730051 0.17713942 0.3826632 0.52439773 0.43596283 0.09629326 0.7440907
0.16930942 0.7201902 0.15606938 0.7605209 0.6112241 0.35389534 0.36136457 0.38646466
0.44158527 0.32029352 0.25261337 0.7998829 0.146416 0.65774155 0.41459563 0.43958658
00000000: 2bf2 373f fe6d c53e 464d b53e a553 8d3e
00000010: 6f81 183f a7d7 25be 456f c63e 53e2 3e3f
00000020: 93c2 413f 70a8 f53e b6fd 2a3f 4edf b03d
00000030: ad8f 0a3f 907f 973e 38a5 533f e5d1 eb3e
00000040: 3a50 4e3e e6e7 d23e 46cb 5b3e de4a c23e
00000050: 1369 103e 0838 2e3f 43f0 f23e 6e10 ab3d
00000060: 2dce 373f 9fe4 3a3f 0964 353e 6eec c33e
00000070: ee3e 063f 8536 df3e 6735 c53d ba7c 3e3f
00000080: 735f 2d3e 635e 383f a7d0 1f3e 7fb1 423f
00000090: 2f79 1c3f c531 b53e c704 b93e b2de c53e
000000a0: 7717 e23e 83fd a33e 8a56 813e 20c5 4c3f
000000b0: 13ee 153e c061 283f e145 d43e 7e11 e13e

bias f4 [48]
0.05513241 -0.031293843 -0.11742011 0.025998326 -0.009604059 0.03908214 -0.027293582 0.06555277
-0.02494797 0.052320246 0.07601402 -0.0055860993 0.040957194 -0.054340057 0.058164585 0.05001849
-0.08562581 0.027267352 0.0026296033 0.04314489 -0.06818347 -0.024743011 0.045964062 -0.0011208357
0.004321438 0.005513433 0.01669853 0.08509744 0.009615568 0.04888531 0.038596705 0.08060835
-0.090787955 0.008318645 0.022969088 0.039161246 -0.031647585 -0.037197232 -0.011587809 0.06293926
0.0039246045 -0.0041345665 -0.004874291 0.005757033 -0.0013946237 0.06108578 -0.054561432 0.00475604
00000000: 86d2 613d f92d 00bd f479 f0bd 71fa d43c
00000010: 585a 1dbc 9814 203d ca96 dfbc 8840 863d
00000020: af5f ccbc c14d 563d 3dad 9b3d 990b b7bb
00000030: bbc2 273d ae93 5ebd fd3d 6e3d 30e0 4c3d
00000040: 965c afbd c85f df3c 6c55 2c3b b2b8 303d
00000050: c6a3 8bbd dbb1 cabc d044 3c3d 01e9 92ba
00000060: d99a 8d3b 07aa b43b 5bcb 883c 9147 ae3d
00000070: 9e8a 1d3c f63b 483d 9417 1e3d fe15 a53d
00000080: 09ef b9bd ed4a 083c ab29 bc3c 8b67 203d
00000090: e6a0 01bd 205c 18bd cbda 3dbc 4ce6 803d
000000a0: f899 803b 427b 87bb 84b8 9fbb 7ea5 bc3b
000000b0: cecb b6ba 1535 7a3d cf7b 5fbd 8ed8 9b3b

running_mean f4 [48]
0.6237862 0.72775424 0.3884325 0.8475018 0.40489075 0.699032 0.69907135 0.5346714
0.90755117 0.5722287 0.8061919 0.38951206 0.55966604 0.4844893 0.8173111 0.38742986
0.45077136 0.7162264 0.6274731 0.93024516 0.6015558 0.7331946 0.4694044 0.59961575
0.582184 0.74589324 0.56089634 0.80810297 0.7525174 0.63911736 0.3411433 0.66844606
0.36011362 0.79036236 0.46876884 0.73085594 0.73664963 0.28011665 0.56696093 0.8321144
0.7319558 0.8368261 0.4386162 1.0575526 0.35542017 0.85973746 0.38501078 0.85778034
00000000: 74b0 1f3f 1a4e 3a3f a0e0 c63e e1f5 583f
00000010: d74d cf3e c3f3 323f 57f6 323f 3ae0 083f
00000020: 4655 683f 957d 123f 9862 4e3f 206e c73e
00000030: 4646 0f3f fb0e f83e 4d3b 513f 355d c63e
00000040: 81cb e63e 9d5a 373f 14a2 203f 8c24 6e3f
00000050: 90ff 193f a4b2 3b3f c655 f03e 6b80 193f
00000060: 030a 153f dcf2 3e3f e796 0f3f d6df 4e3f
00000070: fba4 403f 329d 233f 56aa ae3e 481f 2b3f
00000080: d060 b83e 3055 4a3f 7802 f03e 6019 3b3f
00000090: 1295 3c3f 736b 8f3e 5a24 113f 7305 553f
000000a0: 7561 3b3f 3c3a 563f 4d92 e03e e25d 873f
000000b0: a2f9 b53e c117 5c3f 2220 c53e 7e97 5b3f

running_var f4 [48]
1.1887416 1.938307 0.29237857 1.9771516 0.52217317 1.5448629 1.1940157 1.2672651
2.3822317 0.5517967 1.8742344 0.37474522 1.1692342 0.716019 2.008279 0.47823957
0.767333 1.6238382 1.6536424 1.7875801 1.1990967 1.4219136 0.46385807 0.7072653
1.0473682 2.6126113 0.9931599 1.3174264 1.5029558 1.7613536 0.278816 1.2286204
0.387023 1.8700153 0.75612295 2.380533 1.506402 0.31234422 0.9705564 2.1465087
1.7360415 1.632181 0.5849771 2.751767 0.2602411 2.7942743 0.3675289 2.5268536
00000000: af28 983f 721a f83f a5b2 953e 4e13 fd3f
00000010: 24ad 053f 11be c53f 82d5 983f be35 a23f
00000020: 7c76 1840 8c42 0d3f eae6 ef3f 9bde bf3e
00000030: 77a9 953f 054d 373f a587 0040 d1db f43e
00000040: ef6f 443f eed9 cf3f 8eaa d33f 6dcf e43f
00000050: 007c 993f 4401 b63f ce7e ed3e 570f 353f
00000060: 2910 863f 0635 2740 ba3f 7e3f 6ea1 a83f
00000070: db60 c03f 0974 e13f f9c0 8e3e 6f43 9d3f
00000080: e127 c63e a95c ef3f 4691 413f a75a 1840
00000090: c8d1 c03f 95eb 9f3e 6276 783f 6660 0940
000000a0: 9c36 de3f 4feb d03f 0fc1 153f f31c 3040
000000b0: 523e 853e 64d5 3240 bf2c bc3e f8b7 2140

weight f4 [32, 48, 3, 3]
-0.0240086 0.0642014 -0.010546194 0.12387377 -0.13468075 -0.02720818 -0.011152742 0.07385931
0.010343107 -0.009744652 0.038466062 0.05536236 -0.101472355 -0.07538423 -0.0898411 0.05138095
0.015613863 0.025503455 0.0020507874 -0.13762702 -0.12687698 0.06007698 0.00935302 -0.028236864
0.015423573 0.05129992 0.06151734 0.03133878 0.08125086 -0.08324259 0.1510825 0.10311275
-0.052759927 -0.003761459 -0.04381115 0.036780957 -0.057057023 -0.025474919 0.00665126 0.03258432
0.00390465 0.00034394136 -0.03854131 -0.040156152 -0.0077274228 -0.05840228 -0.12189956 0.048919693
-0.12127101 -0.13464245 -0.16222747 0.21347025 0.20001973 0.07945543 0.07350797 -0.023187814
0.05423435 0.017315995 0.021433875 0.02276701 0.012430659 0.06663658 0.04686791 -0.015600492
0.10310366 0.042434346 -0.058481645 -0.015748193 -0.0005090866 0.06599438 0.122246355 -0.13145763
0.023188967 -0.033076268 0.05464876 0.0018340516 -0.14465058 -0.090727806 0.09724824 0.08419477
0.0694455 -0.0678487 -0.047730863 -0.05470224 0.07025421 0.038122144 -0.041728076 -0.006930104
0.064512506 -0.021413136 0.0022286447 -0.06667896 -0.09423818 0.101285204 -0.11331741 0.040628646
0.018371444 -0.02388637 -0.02008557 -0.034604896 0.01385931 0.0216936 0.035435427 0.0762496
0.07648141 -0.041521113 -0.003723965 0.03204033 0.039391294 -0.043826867 0.13820031 0.04656403
0.035401285 -0.02310764 -0.02200792 0.015030873 0.0412138 0.11808125 0.12029548 0.0028076482
0.020289857 -0.01632105 0.012350812 0.053529587 0.0067546396 0.0906135 0.05594914 -0.02007153
-0.010151096 0.0094384 0.034341164 0.07480649 0.08003442 -0.06334142 -0.01459608 -0.04684662
-0.09603382 0.02846145 -0.11262649 -0.12026632 0.018410005 0.01884547 0.14199677 0.033131726
-0.0721013 -0.004666212 0.017719576 -0.063274555 0.025394646 -0.049168177 -0.16456138 -0.15036565
0.022181856 -0.024986032 -0.036110602 0.058478586 0.04612133 0.012647976 0.047776833 0.09266289
0.15016271 0.08046181 0.030851576 -0.10224775 -0.02924769 -0.058848735 -0.081584156 0.035186715
0.042783845 -0.063669614 -0.18189351 -0.06700324 0.023222428 0.02511065 -0.028954344 0.06259161
0.083352245 0.10589564 0.0029892453 0.14460914 0.1547934 0.09476623 0.08762663 0.012247442
0.046043627 0.016802138 0.11602996 -0.06959483 -0.11750629 -0.1317784 0.043706745 0.09914696
-0.114762455 0.0372374 -0.0037961388 -0.069068655 0.025975233 0.04302117 -0.05049888 0.017820163
-0.026336981 -0.047255788 -0.0020390467 -0.19354983 0.033006787 0.038888004 -0.044605937 -0.04821857
0.061471395 0.06242307 0.07073984 0.04992864 0.0663563 0.049942803 -0.020032868 -0.02622554
-0.0034158344 0.049132694 0.100586586 -0.008051431 0.07496961 0.15795627 0.0019613586 -0.052767355
0.033631243 -0.01583045 -0.04049471 0.011065734 -0.0032785768 0.06780513 0.07208088 0.016146686
-0.023564966 -0.038129404 -0.1385824 0.022715395 -0.18254817 -0.12559481 -0.021911392 -0.15939711
0.0016913523 -0.05545135 -0.07332545 -0.001234449 0.044935413 -0.0028316036 0.060445815 -0.021185506
-0.038061194 0.005073609 0.047059532 0.011551719 -0.10119561 -0.09729018 -0.1374083 -0.08976995
00000000: afad c4bc 067c 833d f2c9 2cbc 88b1 fd3d
00000010: c0e9 09be b0e3 debc feb9 36bc 8d43 973d
00000020: 2376 293c 08a8 1fbc 978e 1d3d a4c3 623d
00000030: bdd0 cfbd 0c63 9abd 9cfe b7bd d574 523d
00000040: 4ad1 7f3c 9fec d03c 8166 063b 19ee 0cbe
00000050: 0aec 01be 4813 763d 693d 193c ff50 e7bc
00000060: 27b3 7c3c dd1f 523d 9bf9 7b3d 185d 003d
00000070: da66 a63d 177b aabd 5fb5 1a3e c72c d33d
00000080: cb1a 58bd cf82 76bb 5273 33bd a1a7 163d
00000090: a0b4 69bd c7b0 d0bc d0f2 d93b 2377 053d
000000a0: 28e5 7f3b 0753 b439 7edd 1dbd c77a 24bd
000000b0: 5236 fdbb 3b37 6fbd 7aa6 f9bd 0460 483d
000000c0: ef5c f8bd b6df 09be f51e 26be f297 5a3e
000000d0: f9d1 4c3e 87b9 a23d 598b 963d 5ff4 bdbc
000000e0: d624 5e3d 46da 8d3c 1896 af3c e181 ba3c
000000f0: f6a9 4b3c c278 883d 91f8 3f3d 3599 7fbc
00000100: 0328 d33d a3cf 2d3d 738a 6fbd 5b02 81bc
00000110: 3974 05ba 1028 873d 4c5c fa3d d49c 06be
00000120: caf6 bd3c fb7a 07bd 61d7 5f3d 8f64 f03a
00000130: 481f 14be 80cf b9bd 162a c73d 4f6e ac3d
00000140: 7139 8e3d 42f4 8abd 7081 43bd 750f 60bd
00000150: 70e1 8f3d f725 1c3d 0feb 2abd ed15 e3bb
00000160: 221f 843d 9a6a afbc 740e 123b fb8e 88bd
00000170: f2ff c0bd 9e6e cf3d f512 e8bd 396a 263d
00000180: b67f 963c 59ad c3bc 7e8a a4bc ddbd 0dbd
00000190: 2912 633c c7b6 b13c bd24 113d c028 9c3d
000001a0: 49a2 9c3d 0b12 2abd c40d 74bb b93c 033d
000001b0: c458 213d cd83 33bd 6284 0d3e edb9 3e3d
000001c0: f000 113d 3c4c bdbc f449 b4bc 0d44 763c
000001d0: cdcf 283d 95d4 f13d 7a5d f63d 8500 383b
000001e0: ea36 a63c b9b3 85bc 0f5b 4a3c d741 5b3d
000001f0: 0656 dd3b 9293 b93d ed2a 653d 0d6d a4bc
00000200: c850 26bc 85a3 1a3c 52a9 0c3d 2534 993d
00000210: 16e9 a33d 25b9 81bd 6624 6fbc 3ee2 3fbd
00000220: 61ad c4bd fd27 e93c b8a8 e6bd 304e f6bd
00000230: 94d0 963c d161 9a3c 9a67 113e 22b5 073d
00000240: d9a9 93bd 06e7 98bb a528 913c 1796 81bd
00000250: 6f08 d03c 9264 49bd c782 28be 74f9 19be
00000260: b9b6 b53c 82af ccbc b6e8 13bd 3e87 6f3d
00000270: b8e9 3c3d 7539 4f3c a4b1 433d 0bc6 bd3d
00000280: 41c4 193e 29c9 a43d 72bc fc3c 4567 d1bd
00000290: da98 efbc 5f0b 71bd 9815 a7bd f21f 103d
000002a0: 1d3e 2f3d 3765 82bd 4b42 3abe ff38 89bd
000002b0: f63c be3c dab4 cd3c a931 edbc 0830 803d
000002c0: 95b4 aa3d d0df d83d 37e7 433b 6b14 143e
000002d0: 2982 1e3e cc14 c23d 9775 b33d 7fa9 483c
000002e0: 3e98 3c3d a3a4 893c 1ea1 ed3d bc87 8ebd
000002f0: 23a7 f0bd ebf0 06be d805 333d 900d cb3d
00000300: 9408 ebbd 3e86 183d a4c8 78bb de73 8dbd
00000310: 03ca d43c f736 303d ead7 4ebd 97fb 913c
00000320: a7c0 d7bc 498f 41bd 87a1 05bb ed31 46be
00000330: 2032 073d 0749 1f3d b7b4 36bd d680 45bd
00000340: 6ec9 7b3d 55af 7f3d 0de0 903d f981 4c3d
00000350: d0e5 873d d390 4c3d f81b a4bc f2d6 d6bc
00000360: 31dc 5fbb 5d3f 493d 5700 ce3d 26ea 03bc
00000370: ab89 993d 4abf 213e 238a 003b 9522 58bd
00000380: eac0 093d dcae 81bc c8dd 25bd 0d4d 353c
00000390: 64dd 56bb 6add 8a3d 249f 933d 0e46 843c
000003a0: 510b c1bc 942d 1cbd 8be8 0dbe a315 ba3c
000003b0: e8ed 3abe ed9b 00be 857f b3bc ff38 23be
000003c0: 5eb0 dd3a f420 63bd a72b 96bd 3ccd a1ba
000003d0: 320e 383d 6d92 39bb 0896 773d 3a8d adbc
000003e0: 0ee6 1bbd 8440 a63b 7fc1 403d 6c43 3d3c
000003f0: a53f cfbd 1340 c7bd c3b4 0cbe 4fd9 b7bd

bias f4 [32]
-0.041486923 -0.016308943 0.032355677 0.034132324 -0.02490292 0.09092284 -0.02365267 -0.18196751
-0.050150406 -0.048625417 0.16163778 -0.05481962 0.0039485833 0.009722907 -0.03623628 -0.029726703
0.07643309 0.06588496 -0.010881128 0.03808121 0.10039266 0.054290347 0.06917101 0.051392216
-0.088392325 0.0040938356 0.04171973 0.008347078 0.015489697 0.09987938 0.029443888 0.00046570148
00000000: 31ee 29bd 559a 85bc 6387 043d 56ce 0b3d
00000010: 3501 ccbc c135 ba3d 3fc3 c1bc b155 3abe
00000020: 836a 4dbd 722b 47bd 6084 253e 8a8a 60bd
00000030: 1e63 813b d44c 1f3c 7e6c 14bd 6a85 f3bc
00000040: f488 9c3d b2ee 863d c246 32bc 0bfb 1b3d
00000050: ab9a cd3d 8e5f 5e3d 88a9 8d3d a580 523d
00000060: 0907 b5bd 9525 863b 4fe2 2a3d 2fc2 083c
00000070: 80c8 7d3c 8f8d cc3d 4f34 f13c 6529 f439

weight f4 [32]
0.14130765 0.38817823 0.2063344 0.8384688 0.4089519 0.6185176 0.38099098 0.54860944
0.17296746 0.31769088 0.53460926 0.2522376 0.23926708 0.29869464 0.3303585 0.6319956
0.18014158 0.23138121 0.38782895 0.2768121 0.9143501 0.17854032 0.52473706 0.5967822
0.34549803 0.72684735 0.49989757 0.4027797 0.18928042 0.449858 0.22260751 0.07566462
00000000: f4b2 103e 4cbf c63e 5349 533e e4a5 563f
00000010: 2562 d13e 2b57 1e3f 4011 c33e ab71 0c3f
00000020: 621e 313e 61a8 a23e 27dc 083f 4925 813e
00000030: 6e02 753e 81ee 983e c024 a93e 77ca 213f
00000040: 0977 383e 32ef 6c3e 8491 c63e 51ba 8d3e
00000050: d912 6a3f 46d3 363e 2b55 063f b8c6 183f
00000060: 1ee5 b03e ab12 3a3f 93f2 ff3e 2439 ce3e
00000070: bad2 413e ca53 e63e 39f3 633e 0df6 9a3d
